eval/pretrained_humanoid_converted.pth (torch, 592497 bytes, 16 tensors)

running_mean_std.running_mean f8 [108]
00000000: caf4 e445 473b f13f 823c d967 9f8b 1140
00000010: 065f 505c 3acc b33f c44e 6fe2 b891 de3f
00000020: 0ead 5984 e7d5 893f 30b3 6dff f7d8 7d3f
00000030: 63fa 37cb ab0a 473f 2416 009e 32a0 c53f
00000040: 842e 0f76 9c1f c33f e5e6 8468 a4c4 c5bf
00000050: b863 f886 74bb ee3f e202 3333 79c1 ed3f
00000060: 07f2 c134 cdda d1bf 0996 4439 2ca0 e93f
00000070: c65c 2178 dba6 d4bf 09d1 74fa c6d8 c63f
00000080: 7af8 6855 0b4f e13f 6d67 45b6 c962 9dbf
00000090: 5d8f 39de 0f50 b7bf e657 8702 a28e ddbf
000000a0: 9f62 3ba5 4ce1 bebf 2924 854f d6ff d83f
000000b0: bde2 0993 c402 d63f 2ce8 3883 3a79 bdbf
000000c0: 8511 2008 f799 d2bf 5100 6ded 6d20 ebbf
000000d0: 2a78 b29b b573 e83f aedb cddf 6be3 e0bf
000000e0: 07e6 f330 8fa9 e1bf 7fab 2124 f490 d93f
000000f0: b420 25fc 5f3b e2bf 8eaa bd71 fb42 eabf
00000100: 4755 6cf0 05a4 debf c613 4cda 6584 993f
00000110: cf7d 1f07 4973 b3bf f07d e8d3 a717 46bf
00000120: a54f 1e38 f243 993f 532a 3f82 a532 a6bf
00000130: 4acf ce68 cce2 a83f 2178 18cb d51b 88bf
00000140: e108 f2cd 1aab aa3f d536 c5f5 43ea 943f
00000150: fee9 2ba4 6a6a 8abf af8a cbb5 f451 8bbf
00000160: 0c95 8747 2319 b13f d1ab 3f27 9226 7dbf
00000170: 61e6 08f4 f7bf a53f c976 a628 40d6 a1bf
00000180: 8c61 e4b1 4554 993f e30f 47d9 539a 913f
00000190: 147d de26 4fd3 91bf ac36 7711 2575 973f
000001a0: 1b9c 21da 6dc9 523f 0eb8 5641 812d 70bf
000001b0: 5a0a 05d0 9e42 c13f 1170 1a56 742f c8bf
000001c0: 25ec b09d 0aeb af3f 7c98 3c99 80af c1bf
000001d0: 6140 c203 29a5 ba3f 5904 758c 7d31 c63f
000001e0: f098 40d1 d493 b8bf 33ed 4ec4 628d 913f
000001f0: 6f45 bdb7 c127 9fbf 71d5 fbb1 ccb4 b4bf
00000200: 7365 0a31 a73e b43f 76fa 5f37 4b39 ba3f
00000210: fa79 c372 d624 68bf 191f 3f84 5c7d ab3f
00000220: a41e 03bf a0e5 80bf 2516 b4a2 12b3 c13f
00000230: fd97 048d dc2e ba3f 4e0e f374 20c0 9abf
00000240: 41c1 c043 1aea c43f 716c 9aba 907b cb3f
00000250: 1fe7 c19d d26c b33f a3c8 8aaf ca73 583f
00000260: 17c2 7cec a338 d8bf f0e0 6353 f3e5 c33f
00000270: c3af b14c 5256 42bf 4aad 96e2 fd3e 973f
00000280: d438 bd6c 5470 843f 069d 486c b5d5 c4bf
00000290: 7db0 2523 8eb1 6d3f a1fc 8871 2ac8 cbbf
000002a0: 00de b3af c936 5cbf 3d88 8e81 dfee a03f
000002b0: 9209 3bf4 c59e 8abf fe49 9a39 1ee4 d1bf
000002c0: 5224 c635 0484 cb3f f7e1 dfde 4967 babf
000002d0: 725b cffa 1436 d53f e415 1e03 153e cbbf
000002e0: 191c 362a 6484 c2bf 78a0 406a 9994 bd3f
000002f0: 1950 baf0 6d4c ccbf 2210 75dd 21d7 c53f
00000300: f5ad 6ac3 70cc b63f b8da 5421 b326 b7bf
00000310: 3735 3e11 c05d b4bf 3b58 a171 fefb a7bf
00000320: d69b 49a1 ee90 e0bf f7e0 86b3 429e c43f
00000330: c326 115d 01e4 ccbf 6d25 17b0 ab77 c8bf
00000340: b14c 39f0 58a0 b93f 1977 ed87 4d20 d2bf
00000350: 9b1a 5aed f7eb d3bf 40d1 8305 3588 c1bf
1.0769722681282468 4.386350271829658 0.07733502153166336 0.4776441775586415 0.012615021444807552 0.007286995641021574 0.0007031763875032345 0.16895134653911825
0.14940219654669218 -0.1700635443065074 0.9603827129495732 0.929867362974701 -0.278979589005559 0.8008023375047638 -0.3226841614864039 0.17849051694214094
0.5408989589848396 -0.028697158575006144 -0.09106539893542505 -0.46183061835233585 -0.12062529596313219 0.3906150604785262 0.34391893729438633 -0.11513105109853033
-0.29064727586253297 -0.8477086674902329 0.7641246834716686 -0.527761399381111 -0.5519481617076857 0.3994722702834039 -0.5697479176242468 -0.8206765386106143
-0.478761181629427 0.02491912026291112 -0.0759778635397119 -0.0006742066833033671 0.024673256564326746 -0.04335515227247257 0.048605335039069233 -0.011771841297612497
0.052086675300431436 0.020424901843674476 -0.012898285994642041 -0.01333991222185679 0.06678982254341664 -0.007116862212550993 0.04248022893848425 -0.03483772751063225
0.024735535605118694 0.0171902753225054 -0.01740764307726035 0.02290780943967856 0.001146657254617051 -0.003949646857490675 0.13484559209071528 -0.1889481945444236
0.062340099095728164 -0.1381684063173373 0.10408264486091091 0.17338532789475172 -0.09600572689723541 0.017140906554897483 -0.03042509731250703 -0.08088378281884957
0.0790810103157094 0.10243673421789787 -0.0029472530787721914 0.05369080652559272 -0.008250480488995855 0.1382773680162909 0.10227755015202429 -0.026123530519511377
0.1633942442727037 0.21470841514096464 0.07587925292491747 0.0014924506523752788 -0.3784570512243887 0.15545503207955091 -0.0005596067288826601 0.022701231913442123
0.00997987706037088 -0.16277187144553568 0.003624703990842858 -0.2170460752840642 -0.0017220468133113398 0.0330724568987226 -0.012998148456408374 -0.27954822182906003
0.2149663221901244 -0.1031385583045291 0.3314259003940868 -0.21283209469053965 -0.14466526089765422 0.11554869503072662 -0.22108244184767115 0.17062781632751106
0.08905701418796481 -0.09043426097637564 -0.07955551548930805 -0.04684443604553264 -0.5176919126650954 0.16107972875557383 -0.2257081703594875 -0.19115205858387743
0.10010295739020837 -0.28322160982303185 -0.31127737215903445 -0.13696921128542705

running_mean_std.running_var f8 [108]
00000000: 479e 8ea9 7144 7f3f f19a 84fc 0992 1140
00000010: 1a13 af1c 6f4a f23f 922b 0b1e f04b e43f
00000020: d258 a3a2 4dba c63f 7421 eb73 869b d43f
00000030: cfd9 8881 c4c4 e53f be02 44cc 7dc3 b53f
00000040: 0427 7160 9a45 9c3f 25fe dfb1 52c3 b53f
00000050: e3cc 273e 73b7 623f d4be 5091 c59f 803f
00000060: 0c71 ec17 433e d93f 4d59 56ca ad6a a43f
00000070: 418f 63dd 488d cc3f ef94 0930 c11e c63f
00000080: f72d 6e23 1eb4 b53f 667b c0b9 2810 cb3f
00000090: c241 1373 446e da3f 00c6 ac72 5768 d83f
000000a0: ca46 7fbb fb75 e13f 336a 53c7 7999 bb3f
000000b0: d181 aa8e 3dc9 b13f c9d9 a40e 5e50 cd3f
000000c0: a1e3 ace0 f563 d73f edb2 6ad3 1982 b03f
000000d0: fb99 5e61 9c85 b63f c9bf 2470 a91f b63f
000000e0: 1fcc 6efa 901d c63f 1250 32aa d17b ca3f
000000f0: 192b df93 1b43 b83f 78b4 e670 0622 b53f
00000100: 7884 a292 0b1b d23f a00b 06e6 f245 de3f
00000110: a846 f59b 69c3 c03f c460 04b6 91ad c63f
00000120: 1872 e005 05d1 bb3f b954 133c 2cb4 bd3f
00000130: e070 0500 6ca5 e83f 50f8 208a f22d ff3f
00000140: c32d 17c9 d8a4 f03f 92c9 a79e 07ff e63f
00000150: b55c ca30 9641 ba3f bd75 7bb3 95fa c13f
00000160: 8ceb fae7 63df ed3f 7ad8 57d6 2ca0 0040
00000170: 0c00 1412 64e7 da3f ec94 8db5 9b3b e13f
00000180: f446 63c8 7293 cb3f c3ed 1865 693d ce3f
00000190: c56d efa3 a54c ec3f e08a ae98 2bc6 c83f
000001a0: d897 10aa 212f c13f 3719 bb3b 1cd4 e93f
000001b0: 8406 c7f8 0a0a d33f fdb1 a2b4 e1d3 f13f
000001c0: 5246 6fbd 1862 d83f 69fe ec72 9bea d63f
000001d0: 399c 7ec3 2c79 bf3f 5519 f029 410d 0540
000001e0: 2358 bd3d 4b05 f83f df32 5be2 5051 9d3f
000001f0: eb2c d7b7 50da 993f edb1 0166 338d d73f
00000200: 243f f444 23a2 c13f 25d8 0a23 06ec 0a40
00000210: 6559 321b 702a f93f 36ee b7e8 97c9 943f
00000220: c291 3f2e ed19 973f 4b65 6103 7f87 b13f
00000230: f743 4587 3a5b bf3f b1fe fcbb 6b6b 9c3f
00000240: 09a3 5bd1 70ea b23f f4f1 4cfd 3c0e c63f
00000250: 5b56 68e6 4133 a03f 4fd8 8974 c95c ff3f
00000260: b008 2060 2824 0640 5bdc 72e1 7432 0040
00000270: b3df bcdf 18ef 1c3f 0753 9416 64bc 763f
00000280: 2416 4d5a d57f 6a3f 4f85 5d85 3f0e fb3f
00000290: 5469 82f4 b8dc 0340 c03d 560a 90ea 0440
000002a0: 4ab7 9874 d95a 173f d54d fc00 b191 6b3f
000002b0: c661 602a 4749 6e3f 9a5d 9f84 12d0 e33f
000002c0: a7b1 df02 0438 e23f 5000 4b44 8668 e53f
000002d0: 5cf3 e87a 6e58 e13f 37f9 4be4 e33b df3f
000002e0: 2b71 9f90 64da e53f 12e8 36ef 97f4 e23f
000002f0: 2cf1 9679 139d e53f 2163 9ffc bcb4 e43f
00000300: 9c41 33f8 ee05 e33f 59da ab28 10b3 e23f
00000310: 2e06 fed1 0151 ea3f 69ce 6260 47c3 e53f
00000320: da27 4a18 e915 e13f 6ec3 afc2 22bd e23f
00000330: 5d6e 4142 70c1 dc3f 6fb6 bc61 5103 e13f
00000340: 9423 2e07 924d df3f ff58 4e83 d5f6 de3f
00000350: 1dfa d9f3 0435 dc3f fa4b c383 6aef de3f
0.007633632653699935 4.392616220086652 1.1431723709549204 0.6342697703160971 0.17756052438080033 0.3219925052658461 0.6802694826099528 0.08501421200709111
0.027609264503815303 0.08501164286280323 0.002284741481383899 0.00811724042622989 0.3944251760128885 0.03987639517724748 0.22306166467671498 0.17281355710580423
0.0847796284198735 0.21143063611904295 0.41298018682303106 0.38136850546570145 0.5456522619299105 0.10781060329774377 0.0694769357019205 0.22901511874233751
0.36547610226585375 0.0644851819185523 0.08797623994050945 0.0864206217563598 0.17277729252018134 0.20690365610482836 0.09477398262167148 0.08255043274285068
0.28290070838745107 0.4730193373035778 0.1309635173334318 0.17717191112092767 0.10865813630557175 0.11603046862304013 0.7701931000151738 1.9487176318794077
1.040245805272989 0.7186315630663549 0.102563273345697 0.14045974029333577 0.9335193186628756 2.0782105203207353 0.42037297978822674 0.5385263963659361
0.21543726715622535 0.236249136318163 0.8843563272343365 0.19354767756620728 0.13425083927103176 0.8071423689478142 0.2974879674403399 1.1142289215159729
0.38098734378318 0.35806928847521263 0.12294273159805948 2.6314719463727365 1.5012924586967606 0.028630508247078686 0.02524686929772894 0.36799321137985325
0.13776055209063387 3.365246080177729 1.5728608190889528 0.020300267771729184 0.02255983919884997 0.06847375710039676 0.12248578836921796 0.027753527974026585
0.0738897811057876 0.1723095166033911 0.03164106309502009 1.9601530601771804 2.76765513513336 2.0246369946649287 0.00011037434881877479 0.005550757379087618
0.003234783844535698 1.6909785470564491 2.4827746488855755 2.6145325477188806 8.90917991902249e-05 0.003365369520801779 0.0036970510436839825 0.6191494550975449
0.5693378502015108 0.6690093358847751 0.5420448685250494 0.48803040785414303 0.6829092812218155 0.5923576042325769 0.6754243254468171 0.6470627721820145
0.5944743011150879 0.5843582910882318 0.8223885632907633 0.6800877459085771 0.5339246248633984 0.5855878641578849 0.4493065497424363 0.531655016796959
0.48910952283090947 0.48381555388313296 0.44073604405994776 0.4833627974268776

running_mean_std.count f8 []
00000000: 0000 0004 0040 9f41
131072001.0

value_mean_std.running_mean f8 [1]
00000000: d2f9 4423 c19d 1640
5.654057074627831

value_mean_std.running_var f8 [1]
00000000: dcd3 505d 8b46 1140
4.318891008432697

value_mean_std.count f8 []
00000000: 0000 0002 0040 af41
262144001.0

a2c_network.actor_mlp.0.weight f4 [400, 108]
00000000: 6f8c 7739 8713 993d 3bd9 0c3d 638c 21bb
00000010: 79c0 783d 821e 23bd 82bc a6bc c749 47bd
00000020: 0be0 0e3e e356 9abd c03f 73bb ea1b 8f3d
00000030: 3380 17bc 469f 433e ecc0 f4bd cd7a 203a
00000040: e782 3f3c f7b7 dbbd c5b0 4ebd 1e89 b1bd
00000050: 9300 bcbc 7dd8 033e 8c93 34bd 25b2 b4bd
00000060: c7f6 853d bf05 5bbd f0cc a53d 8f77 a93c
00000070: 6473 d6bc 5367 cf3c 42ec 123d 0cdf bfbd
00000080: 4d66 10bd 31cc 7ebc b47e 503d fee8 603b
00000090: 221c 92bd 2bf5 a7bc aab7 abbd ef25 78bd
000000a0: cdad de3c ab8c f5bc a9bc 03bd 4242 143d
000000b0: 729b b8bd 4afc fa3c 901c 3abb 083a af3d
000000c0: 9012 60bd 4a56 9e3d f252 953d 9d42 2b3d
000000d0: aa4f 19bd bdbb 9abd 81d4 bf3d 517f 4b3c
000000e0: 9b8e 81bd a57a bd3c ab23 1abd a101 a3bd
000000f0: 0ff4 7cbc 23a3 6c3c 896e b1bd a03c 543d
00000100: f89f ddbc 2abb 493d c761 d8bd d481 3cbd
00000110: 40be b73b b229 1bbb 42ad 9ebd 38af e03c
00000120: 4113 9fbd ed1e 96bd 7695 913d eb83 e13c
00000130: 431f 62bc 2fe8 38bd 146c ac3d d1dc e0bc
00000140: b6d0 cabb 2a51 43bc 2a79 973d 184b 773d
00000150: 8d0e 93bd 8f34 40bd e533 9c3d 08c0 da3c
00000160: 9698 46bd 8575 8dbd 9a41 703d e1e8 1c3d
00000170: b200 7fbd 320e 8a3d cd80 ef3c 593d 913d
00000180: 8301 9dbd d1c9 a23c 1a92 c9bd f20f 4dbd
00000190: de11 58bd c9da 423d 7f2b 38bc 836c 843b
000001a0: 9f1d 35bc e6c7 61bd 42ac d3bc ac4c a73d
000001b0: 3408 94bc d593 da3c 9050 883d d8d1 123e
000001c0: 19e9 0fbc dbf2 c5bc 7b54 22be 0c93 aabd
000001d0: 3496 ba3d 85cf aa3d b7dc 91bd 0224 b73c
000001e0: 17dc 3cbd 778e 933d 083f c83d a51d a7bd
000001f0: 2110 c33d a69c a3ba c974 213d e016 3cbd
00000200: 6a6a c73d ef46 0dbd a2b6 8c3d 94c6 77bd
00000210: b01b 333e 6eab d03d a947 17bc 9830 d93d
00000220: ecfc 493d 5c19 05bd cdc8 fd3d 0e39 d73d
00000230: a281 923d dbfb e6bd 7c9a e93d 1089 83bd
00000240: 2a59 6a3c 2bf2 5dbd 1384 d73d 2349 9fbd
00000250: 86a0 f8ba ce47 933c 7ada 20bc 65b4 2d3c
00000260: 2ced babd 026f 54bd 310b 95bd ebed 4e3d
00000270: ed26 673c 9ad5 e9bd bad2 4d3d bf45 98bd
00000280: 1038 9fbd 7e2f b13d 53c7 49bd 01d4 35bc
00000290: 8920 20bd 6d15 c03d ee4e 5c3d c39c c6bd
000002a0: 660a 033d 36d0 db3a 6b60 2abd 966b df3d
000002b0: 0855 c5bb 34fd 0b3e 440c 7a3c 05e0 9cbc
000002c0: 70d4 103c 1773 b33c d486 2b3d b929 3d3c
000002d0: 7127 aebc 45ed 0f3d bd7d 7cbd 3005 2bbd
000002e0: f061 e9bc 17e0 81bc 81ce ef3d e798 1e3d
000002f0: 8f83 54bd 64f1 2b3b b1e3 003e 3599 413d
00000300: 97f8 d5bc 0346 7bbd 26b6 6e3d d90b 4f3d
00000310: a071 f43d e22c 67bd c514 ea3b d050 99bd
00000320: fac6 e23d 93b2 c03d 0f68 58bb 5911 2b3d
00000330: c819 99bd 6b20 0a3e 1023 153d 04cb afbc
00000340: ba04 13bd c65c 70bd 7ab6 bc3c 837d 21bd
00000350: e070 303d 270f b5bb dd33 e9bc cfb3 ec3c
00000360: f29d a93d b28b e73c 6e7a e3bd e49f cf3d
00000370: d058 edbc fe70 813c bef8 f9bd 13e7 1abe
00000380: 934d 913c 3011 2e3e 88e6 85bd f09f abbd
00000390: ffae 973d 481f a4bd 3bc1 8e3c 13e1 9abd
000003a0: 777e 0cbe f717 a4bd bd80 403e 32c1 eabc
000003b0: c5e5 f33d 2f5f 803c fdc4 68bd c7c7 10be
000003c0: 8da8 8ebd 9f84 02bd 362d 42bb 409c 9dbd
000003d0: be6d 0cbe d920 a53d df5c 353d 38a9 e53d
000003e0: 4265 293e 7cc8 0ebd ef30 093d ea0e 0b3d
000003f0: 2514 9cbc d3c9 963c 67d1 c4bc cca8 f03d
0.00023608071 0.07474428 0.034386855 -0.0024650327 0.06073043 -0.039824016 -0.02035356 -0.048654344
0.13952653 -0.075361036 -0.0037116855 0.06987746 -0.009246874 0.19103727 -0.119508594 0.00061218144
0.011688924 -0.10728448 -0.05046155 -0.08668731 -0.022949493 0.12875552 -0.044086024 -0.08823041
0.0654121 -0.053472277 0.08095729 0.020686893 -0.02617807 0.025317824 0.035869844 -0.09368715
-0.03525381 -0.015551613 0.050902084 0.0034318562 -0.07134272 -0.020502647 -0.083846405 -0.06058305
0.027182484 -0.029974302 -0.032162342 0.036196 -0.09014024 0.030637879 -0.0028398372 0.085559905
-0.054705203 0.07731302 0.07291211 0.041811574 -0.03742949 -0.075553395 0.09366704 0.012420491
-0.06326028 0.02312977 -0.037631672 -0.07959295 -0.0154390475 0.014443192 -0.08663661 0.05181563
-0.027053818 0.04925076 -0.105655245 -0.04602225 0.0056073964 -0.0023675975 -0.0774789 0.0274273
-0.07767344 -0.073301174 0.071085855 0.027528724 -0.013801399 -0.045143303 0.08419052 -0.027449043
-0.006189431 -0.0119212065 0.07396157 0.06037435 -0.0718051 -0.046925124 0.076270856 0.026702896
-0.04848536 -0.06907181 0.058656313 0.038308028 -0.062256522 0.06740989 0.029236222 0.07091779
-0.07666304 0.019871624 -0.0984232 -0.050064035 -0.052751414 0.04757193 -0.011240839 0.004041256
-0.0110544255 -0.05512228 -0.025838975 0.08168921 -0.018070318 0.02668182 0.06655991 0.14337862
-0.008783602 -0.024163654 -0.15852539 -0.08328828 0.0911068 0.083403625 -0.07122176 0.022356037
-0.04610833 0.072049074 0.09777647 -0.08159951 0.09524561 -0.0012482598 0.039418016 -0.045920253
0.09737094 -0.034491476 0.06870772 -0.060492113 0.1749103 0.101889476 -0.009233394 0.10604972
0.04931347 -0.032494888 0.12391815 0.10508929 0.07153632 -0.11278506 0.11406419 -0.06422627
0.014303485 -0.054186027 0.10523238 -0.077776216 -0.0018968738 0.017978575 -0.009817714 0.010602091
-0.09127268 -0.051863678 -0.07277525 0.050519865 0.014108402 -0.114176944 0.050249793 -0.07435178
-0.07774365 0.086516365 -0.049262356 -0.011097909 -0.039093528 0.09379087 0.05378621 -0.09697869
0.03199234 0.0016770426 -0.041595858 0.10909192 -0.0060220994 0.13670808 0.015261713 -0.01914979
0.008839712 0.021905465 0.04187663 0.011545592 -0.021259042 0.035138387 -0.06164335 -0.041752994
-0.028489083 -0.015853925 0.11709309 0.038720038 -0.051883277 0.002623641 0.12586857 0.04726525
-0.026119513 -0.061346065 0.05827918 0.05054841 0.11935735 -0.056439288 0.007143589 -0.07486117
0.11073108 0.0940906 -0.0033021008 0.04176459 -0.074756205 0.13488929 0.03641039 -0.02145911
-0.03589318 -0.058682226 0.02303623 -0.039426338 0.043076396 -0.005525488 -0.028467113 0.028894333
0.08282079 0.028264854 -0.11107336 0.101379186 -0.028973013 0.01580095 -0.12205647 -0.1512721
0.017737186 0.16998744 -0.06538111 -0.08380115 0.07406425 -0.08013779 0.017426124 -0.07562461
-0.13720118 -0.080123834 0.1879911 -0.028656576 0.119090594 0.015670387 -0.056828488 -0.14138709
-0.06965742 -0.03186476 -0.0029628999 -0.07695818 -0.13713738 0.08062906 0.044278022 0.112139165
0.16542533 -0.034859166 0.033493932 0.03394977 -0.019052574 0.018406784 -0.024025632 0.117509454

a2c_network.actor_mlp.0.bias f4 [400]
00000000: d036 003e 60ba 5d3e e41b ae3e c0cd 313e
00000010: 4441 9b3d 9302 babd 725d 1f3e 290c e4bd
00000020: 2b25 12be 9091 833d 6b16 49bd d884 b2bd
00000030: cde8 203d 04db 613e 87ec 2a3d bc86 093e
00000040: 4216 203e d7b8 2d3e 7652 893e 5cd6 28be
00000050: 8e15 16be 8972 80be aca4 0abe 55bb 1c3e
00000060: fed3 153d d020 093e 7ed8 69bd 1ea5 42be
00000070: c389 b83d 2831 6b3e 7864 3a3e d07d fabd
00000080: 62f2 a83e 4d38 15be 7844 363d 6f42 26be
00000090: 28de 093e 519c 353e 8b8e 71be bc0c 7b3e
000000a0: a163 453e aab9 a2bd ce6f 8a3e 5503 803d
000000b0: e6aa 58be d7b7 1d3e ad1b 893e f2b1 ae3e
000000c0: ba9e fc3d 22c7 8f3e eb00 f53d b02f 623e
000000d0: 5525 113e b22f 463e 5dc4 d7bd 65c7 89bd
000000e0: 7972 8cbe 73af 393e 7e87 173d 6cc8 60be
000000f0: 2a3a bc3b 7167 1e3e 451a e2bd ba9b 7abe
00000100: 7ea5 793e 0d2e d3bd 2c51 9b3e 3e42 1cbe
00000110: 3f2d e2bd e62b 873e cd16 1c3d da4a 8e3e
00000120: 732a 8d3e ec78 ae3e 6954 a4bd dd0e 003e
00000130: 25e1 9b3e dbe7 ec3d d97a 363d dfd2 3a3e
00000140: 153f a13e d50d b13e 549a 15be 7aeb 4bbe
00000150: 123e d33d a0f6 ebbd 20d0 c43e a648 ffbc
00000160: 3494 483e 19f9 673e ddac a8be 5536 363e
00000170: b5a9 46be 9e18 613e e45d 313b 7c4a 73be
00000180: bc90 403d 2607 893c faba 5d3d 83e5 b03c
00000190: 90a6 abbc b820 963d 465e ddbd d4f0 6cbe
000001a0: 6297 72be 2802 b9be 3d52 173e 6c45 61be
000001b0: 762a 4d3d 48d8 36be 3d7f c93d 3e66 8dbd
000001c0: c447 54bd ef54 bd3d cb40 303d a1d0 e43d
000001d0: 6aa6 353e 9c7d 4bbe 58a1 47be d706 203e
000001e0: 94cb 163e 61f3 14be f14a bebc df44 1abe
000001f0: a361 403e 9fc8 46bd 04d8 4b3e f883 82bc
00000200: 8304 8c3d ee8e a03d a5f5 a63e 9b83 733e
00000210: 199d f9bd fff7 f73d 96c8 04bd 65cd bc3d
00000220: 4ae5 0ebe 7416 05bd 9ac6 6b3e a8aa 90be
00000230: e4d7 9e3e 69a1 023e 4684 06be 351d f03d
00000240: cf1e 773e bdc9 d73d 5324 983e f387 b73e
00000250: 954f 25bd 2d02 e93d 42b9 c3bc bc0a 44be
00000260: 614e ab3e 35a2 173e 0e2e edbd a737 26be
00000270: 6603 40be eabb 8fbd b867 02be cbd8 edbb
00000280: 0602 a43e 8c9d e5bd a38c 943c f913 7d3e
00000290: 0b48 2ebd 0408 4d3e 81be c93b d845 acbd
000002a0: a383 46be 168a cb3d c2dc 2d3e f13f b63c
000002b0: 1588 003e f34a 58be 09e0 313d ba41 a53e
000002c0: f7fe 92be 502c 8e3e 1459 e5bc 7755 9abd
000002d0: 9e5f d03d 6c67 983e d3bd c43c 63d1 5a3d
000002e0: 5d79 363e 6319 ff3d 4e4f 26bd ed63 8abd
000002f0: 1ba2 bc3d dceb 0b3e 7729 503d 1d8f 7f3e
00000300: 76b2 45bc 264e 343e de52 743e 6351 583e
00000310: 4eb0 81bd 6ed0 293e 45ac 323e 37bb 973e
00000320: 0a54 f73d 3b4c 803e 6da5 3c3d a2a1 763e
00000330: 400f abbd 74e6 7cbd 4431 e1bc 2549 f33d
00000340: bb92 303e 0a84 143a 6934 91bd 015c a7bd
00000350: 52a5 cfbd a46e 32be d8ae bf3c 35f1 523d
00000360: 9f6e aa3e 26c0 753e 3be8 bcbd d2ea 803e
00000370: 9b58 623e 25c4 99bd d70c be3e ec88 b5bc
00000380: ad43 d2be a255 d03d 488d e83d 1739 8b3e
00000390: 8d45 07be cf3c 25be 646b 373e a02b cbbc
000003a0: 8560 483e af9b 503e 00ab e4bc a1d6 c23d
000003b0: 393e 983e 8baf 4d3e c8fd d53d 2567 6d3e
000003c0: 6266 4f3e bf7a 473e 05b4 8fbc 6b36 9dbe
000003d0: 4c25 b43e ff37 e4bd cd09 abbe bc94 713d
000003e0: 6a14 093d 8a4c 18be b7a0 07be 0ba6 aebd
000003f0: 3c29 f1bd a626 68be a937 a23c c9b6 79bd
0.1252091 0.21653128 0.34005654 0.17363644 0.07580808 -0.09082522 0.1556299 -0.11135132
-0.14271991 0.06424248 -0.049093645 -0.08716744 0.039284516 0.22056204 0.041729476 0.13430303
0.1563349 0.16965042 0.26820725 -0.16488022 -0.1465666 -0.25087383 -0.1353938 0.15305836
0.036579125 0.13391423 -0.05709123 -0.190083 0.09010651 0.2296797 0.18202388 -0.12231028
0.32997423 -0.14572258 0.04449889 -0.1623628 0.13463652 0.17735411 -0.23589532 0.24516577
0.19276287 -0.07945569 0.27038425 0.062506355 -0.21158943 0.1540216 0.26778927 0.34120136
0.12334962 0.28081614 0.11963066 0.22088504 0.14174397 0.19354132 -0.105355 -0.067274846
-0.27431086 0.18133335 0.03699445 -0.21951455 0.0057442384 0.15469147 -0.11040167 -0.24473467
0.24379537 -0.10311518 0.30335367 -0.15259644 -0.11043786 0.2640068 0.038107682 0.27791482
0.2757145 0.3407663 -0.080239125 0.1250567 0.3044521 0.115676604 0.04455075 0.18244503
0.3149344 0.34580866 -0.14609653 -0.19914046 0.10314573 -0.11521649 0.38440037 -0.031162571
0.19587785 0.22653617 -0.32944384 0.17794164 -0.19400676 0.21982047 0.002706402 -0.23758882
0.04701303 0.016727041 0.054133393 0.021593815 -0.020953447 0.07330459 -0.10808997 -0.23138744
-0.2369056 -0.36134458 0.14777465 -0.21999139 0.050089322 -0.17855942 0.09838722 -0.06904267
-0.051826254 0.092447154 0.04303054 0.11172605 0.17739263 -0.19872135 -0.19495142 0.15627609
0.14726096 -0.14545967 -0.023229094 -0.15065335 0.18787245 -0.04853117 0.19906622 -0.015932068
0.06836798 0.07839762 0.32609287 0.23780672 -0.12188167 0.121078484 -0.032417856 0.092188634
-0.13954654 -0.032492116 0.23024979 -0.282552 0.31024086 0.12756886 -0.13136396 0.11724321
0.24132846 0.105365254 0.29715213 0.3584591 -0.0403591 0.11377368 -0.023892049 -0.1914472
0.33458236 0.14807971 -0.1158105 -0.16232167 -0.18751296 -0.07018264 -0.12734878 -0.0072585098
0.32032794 -0.1121169 0.018133467 0.2471465 -0.042549174 0.20022589 0.006156743 -0.08411759
-0.19386153 0.09938447 0.16978744 0.022247287 0.12551911 -0.21122341 0.043426547 0.32276708
-0.28710148 0.27768183 -0.027996577 -0.075358324 0.101744875 0.29766405 0.024016296 0.053422343
0.17819734 0.12456014 -0.040602975 -0.067573406 0.09210607 0.13664192 0.050820794 0.24956937
-0.012066474 0.17607936 0.23859736 0.21124797 -0.063324556 0.16583416 0.17448528 0.2963502
0.12076576 0.2505816 0.0460562 0.24085096 -0.08352518 -0.061743215 -0.027489312 0.118791856
0.17243473 0.00056654273 -0.070900746 -0.08171845 -0.10138954 -0.17425019 0.023398802 0.051499564
0.33287522 0.2399908 -0.09223982 0.25179154 0.22104113 -0.07508115 0.3711917 -0.022160016
-0.41067258 0.10172583 0.11355072 0.27191994 -0.13210125 -0.16136478 0.1791206 -0.024801075
0.1956807 0.20371889 -0.02791357 0.095135935 0.29734972 0.20086496 0.104487956 0.23183878
0.202539 0.19480418 -0.017541895 -0.3070558 0.35184705 -0.11143493 -0.33405915 0.058979735
0.033466734 -0.14872947 -0.13244902 -0.08527764 -0.11775443 -0.22670993 0.019801931 -0.060965333

a2c_network.actor_mlp.2.weight f4 [200, 400]
00000000: 4a8f ed3b 6e66 383c fc94 b6bc 55a9 903b
00000010: 68e2 253d e62d 37bd 585b a7bd 4cb8 893a
00000020: 44af e2bd 686e 25bd 51db 24bd ea94 f5bb
00000030: b209 b23d 0139 88bc 8bdf 7e3d 4681 143b
00000040: 8fba c73b 301c afbd f328 e33c 0503 b9bb
00000050: c8ea 0ebd 4425 ce3c 0862 b33b b6dc e73c
00000060: ee17 d2bb 3f8f 173c 8a24 a5bc a1dc 77bd
00000070: b2e1 193d 1eed 1fbd 2e14 febc 1123 16bd
00000080: 8fe1 54bc 0777 21bd c38f ad3c 0fdd 853d
00000090: fb93 233d c2c1 efbc 9897 c93b d9b7 853d
000000a0: a18b 983d fee6 5bbd 1df4 5e3c 1eb8 323d
000000b0: 5cd3 833d b0af 6c3c d636 203d 2f7c 49bc
000000c0: 4a4a f238 9c38 45bd eaee 613d f13e 863c
000000d0: 896f 25bd 52f1 b53c d3eb f3bc a6a8 3dbd
000000e0: 7de1 813d 7ac7 d1bc cf99 073c b417 d13b
000000f0: 1eb7 74bd c40d 9d3c 081c 88bd c59c febc
00000100: 994c d5bc 7349 8fbc 5702 843b 96f9 21bd
00000110: 02a0 b1bc 7981 b9bc 54ff 8d3d 2e21 2c3d
00000120: 689e be3c 3a92 a43c f154 453c dc45 5bbc
00000130: d794 88ba 08e2 0a3d edd8 c9bc 67b1 6a3d
00000140: 33f5 07bd 30ae 233d 10e1 08bd af0a 893d
00000150: d259 5b3d 669f 36bd d4cf 4f38 d6fa eabb
00000160: 05dc 2f3c f0ad e1bc c01f 55bd 711f 6ebd
00000170: 60b7 273d d331 293c e81a 183d 77e2 d43b
00000180: 908d 493d c0f1 803c d1c7 dfbc ae36 143d
00000190: 1707 72bd d2c6 d03c e646 cabc 162b f5bc
000001a0: 9b10 dc3c 98b8 793d d58b 873c 961c 94bd
000001b0: f0c8 133d 399e 1bbd 6335 25bb 1f44 0c3d
000001c0: 5988 013d 6bb4 aa3c cd06 223c 4937 66bd
000001d0: 9d37 293d 1f58 843d e4c2 cc3a c646 5d3d
000001e0: f11c dcbc 5ca2 6f3d 8ca7 93bd 4741 18bd
000001f0: 5cd5 873d d757 44bd 0a6b c2bb 2dbe 8ebc
00000200: 8e64 e8bc 239f 083d 9fe8 7abd f406 12bc
00000210: 4005 133c 1748 69bc 71f1 8dbd 8b23 45bd
00000220: 78dc 3d3d 84b8 6cbd fa48 4c3d 8a3a 873d
00000230: fe97 dd3c a9f8 a5bd 48f0 2dbd 616d 7a3a
00000240: 0cbd 233c 3699 39bc 3038 82bb 6c47 87bd
00000250: 0488 e13c 9d46 94bd bbe3 993d 710c 91bc
00000260: 0b81 88bc c32f da3c db30 1a3d 1fa8 273d
00000270: dc1b 07bd dc1a 33bc d383 fa3b f212 57bd
00000280: ddb4 25bd f675 5d3c fbb2 623b a5a6 8abc
00000290: f35d 07bd 7baf 98bc 7aa5 10bd d61f d9bc
000002a0: e755 0a3d 10bd 52bd 84eb 43bd 468d f13c
000002b0: 98e7 053c a264 8fbc e9d9 ec3c 6fcc 5c3d
000002c0: fc09 67bc 9257 49bd c0f9 3abd 2a49 5fba
000002d0: 1fe9 e73c 4230 05bb f25b ed3c 2092 24bc
000002e0: e857 ccbc a93a 453c 964d b23d e147 85ba
000002f0: 7f7a 9dbc 67be 343d 31de cd3b f026 a53b
00000300: d428 c1bd 99e0 80bd 5c78 283d cd8d 40bd
00000310: bd90 ba3d 75ae 6cbc 6eed b23b 9fef 68bd
00000320: 33a7 a73c 6a74 e1bb 510e b4bc e542 41bd
00000330: d9c0 abbd c44e 10bb aa57 1d3c 3eaf 8d3c
00000340: 3db0 7d3d 9e08 0f3d 1eea 85bd 46b4 6dbd
00000350: 1476 feba 08f4 38bd ee7e 02bd 97fd 03bd
00000360: 87b6 2bbc 8e4d 7ebc 1bc1 d0bb 91ce 82bc
00000370: 6101 1abd d452 d6bb 90d9 023d a8d6 2b3d
00000380: b4b7 f7bc aeaa 5b3c 4f93 79bd 34f4 8c3c
00000390: 11e8 393d de0a d13c 4597 e83c 3cbe 90bc
000003a0: b95d 143d bd4f 33bd 3bd6 72bd 41d8 2d3d
000003b0: 5b48 56bd 3838 5b3d b4aa 3c3a b02e 99bc
000003c0: 17c7 87bb 20e8 d63b 249b 9e3c b620 c7bc
000003d0: 017e 3bbc f820 2cbd a952 fbbc 65ed 17bd
000003e0: f524 923c c934 6a3d 03d5 073d 9d4a 19bd
000003f0: fbc4 19bd bd42 99bb f93a 563b 6481 003b
0.0072497474 0.01125489 -0.022287838 0.004414717 0.04049912 -0.044721507 -0.08171719 0.0010507195
-0.110685855 -0.040388495 -0.04024822 -0.0074945586 0.086932555 -0.016628744 0.062224906 0.002266006
0.0060952376 -0.08550298 0.027729487 -0.005646112 -0.034891874 0.025164254 0.0054743327 0.028303485
-0.006411544 0.009250461 -0.020159025 -0.060513142 0.037568755 -0.039044492 -0.031015482 -0.036654536
-0.0129932305 -0.039420154 0.021186715 0.06536304 0.039936047 -0.029267196 0.0061521046 0.06529207
0.07448507 -0.05368709 0.013608006 0.04363262 0.06436798 0.014446184 0.039114796 -0.012297674
0.00011553297 -0.04814969 0.055159487 0.016387435 -0.04038957 0.022209797 -0.029775536 -0.046303414
0.063418366 -0.025607813 0.008276417 0.0063809995 -0.059744947 0.019171603 -0.066459715 -0.031080613
-0.026037501 -0.017491078 0.0040285992 -0.039544664 -0.021682743 -0.022644745 0.069334656 0.04202383
0.023268893 0.020089258 0.012044177 -0.013383355 -0.0010420334 0.033906966 -0.024639571 0.05729809
-0.033192825 0.03996104 -0.03341776 0.06691491 0.053552456 -0.044585608 4.95462e-05 -0.0071710153
0.010733609 -0.02754876 -0.052032232 -0.058135454 0.040946364 0.01032682 0.037135035 0.0064967233
0.04920727 0.015740275 -0.02731696 0.03618496 -0.059088793 0.02548543 -0.02469201 -0.029927772
0.026863387 0.060967058 0.01654617 -0.07232015 0.0360803 -0.03799269 -0.0025208823 0.034244653
0.031624172 0.020837983 0.009889317 -0.056205068 0.041312803 0.0646212 0.0015622047 0.054022573
-0.02686927 0.058504447 -0.072096914 -0.03717163 0.06632492 -0.047935333 -0.00593317 -0.017424667
-0.02836826 0.03335489 -0.061257 -0.008912791 0.00897342 -0.014238379 -0.06930817 -0.0481296
0.046352834 -0.057793155 0.049874283 0.06602962 0.027050015 -0.08104069 -0.04246548 0.0009553042
0.009993803 -0.011328032 -0.003973983 -0.066054195 0.027530678 -0.07240031 0.07514139 -0.017706128
-0.016663095 0.026634103 0.03764425 0.040931817 -0.032985553 -0.010931697 0.007645109 -0.052508302
-0.040455688 0.013516894 0.0034591544 -0.016925165 -0.03304858 -0.018638363 -0.03531406 -0.026504438
0.03377333 -0.051449835 -0.047832027 0.02948631 0.008172892 -0.01750404 0.028912501 0.0539059
-0.014101502 -0.04915578 -0.045648336 -0.0008517677 0.028309403 -0.0020322953 0.028974507 -0.010044605
-0.02494426 0.012037911 0.087062046 -0.0010168516 -0.01922345 0.044126894 0.006282591 0.005040042
-0.094316155 -0.062928386 0.04113041 -0.04701023 0.09109638 -0.014445891 0.0054604327 -0.056869145
0.020465469 -0.0068803327 -0.021979483 -0.047182936 -0.08386392 -0.0022019604 0.00960342 0.017295476
0.061935652 0.034920327 -0.06538795 -0.05803325 -0.0019413852 -0.0451546 -0.03185933 -0.032224264
-0.01048053 -0.01552142 -0.006370676 -0.01596764 -0.03759897 -0.0065406356 0.031945765 0.04195276
-0.030238964 0.013407392 -0.0609315 0.017206289 0.04538733 0.025517877 0.028392443 -0.017668836
0.036222193 -0.043777216 -0.059286337 0.042442564 -0.052315097 0.05352041 0.00071970676 -0.01869902
-0.0041436064 0.006558433 0.019361086 -0.02430759 -0.011443616 -0.04202363 -0.030679064 -0.03709163
0.017839888 0.057179246 0.03316213 -0.037424672 -0.03754137 -0.0046771453 0.003268896 0.0019608373

a2c_network.actor_mlp.2.bias f4 [200]
00000000: 9336 d2bc ccf0 d2bc 66f2 ebba 3645 49bd
00000010: ed76 6cbb b62c 7cbd 76d2 f93c 0884 cd3c
00000020: a0d2 3f3d ccce 213c d76f 66bd 99ae d0bd
00000030: f51b 45bd 5b31 29bd 4378 53bd d555 4abd
00000040: a086 3dbe 5cc1 01be 32e6 42bd bbe7 91bc
00000050: 6053 41be ad16 77bd d165 cbbd 79e3 b53c
00000060: 80e8 913b 4823 a33c f0bc 343d 2eea 183c
00000070: abdb 76bb fe4d 813d faf8 a13b 826f 48bd
00000080: caa7 d63c 6214 0dbd d7a4 673b 29da bebd
00000090: 0fb1 6ebc d193 28bd 67ac 69ba 642a 323c
000000a0: 8a8a 94bd 67b4 473b 6317 bdbd 40a4 8e3d
000000b0: 6a1f 9e3c fd82 0abc 3eea c13c a58e bebd
000000c0: d49c 923a 1ea7 36ba b499 983c d5d1 fbbc
000000d0: f660 8dbc de0c a5bd 604c 78bd ff0f 633d
000000e0: c6f8 743c 2b8a 11bc 32e0 223a c6e4 f6bc
000000f0: a500 ccbc 545d 29bd 8a3c 743d 0ce6 9b3c
00000100: da15 65bd 6499 2fbd 3da9 5d3d 6b10 8dbc
00000110: d9d6 0e3d fe22 29bd c5fe fc3c 854c 98bd
00000120: b00d bc3d de96 91bd 3eb6 853d e0a1 153d
00000130: dc90 9fbe e69b 84bd fa7a 61bd c4a2 d8be
00000140: 305e 7c3d 977b 923c 6a68 41bc 7864 4a3d
00000150: f0ad 85bd 3c86 1fbc 3aac 183d d6e1 aabe
00000160: 61e1 0ebc c0b3 6d3d be47 88ba 0880 0c3a
00000170: 9309 43bd a210 ebbc 4aad 823d 7cde 0bbd
00000180: 7d24 5dbc 98f8 b7bb 4205 d2bc bdd5 b53c
00000190: 420d 1bbd 4484 853d 88ba cc3d 5b2e 6bbe
000001a0: 4819 d3bd fa96 03be 1664 41bd eb64 a73c
000001b0: a1e7 88bc f25d 21ba 409c 89bd 98b3 29bd
000001c0: 68d2 ab3d 84f5 87bc 1d9c e3bd 5a8d 24bd
000001d0: f208 b1bd 10be 953d 2162 f63c aa81 a63b
000001e0: 4a11 24bd b1fb f7bd cbc2 303d b3a9 6fbd
000001f0: 1e4f 0f3b 3507 a23d f1d1 543d 0e0b 36bc
00000200: ce0d c13c 3823 663d 3689 223d 2323 aabd
00000210: 337d 30be 4b6b 31be d107 123d 6673 353d
00000220: c065 5dbe 7ced 46bd c4c1 513d 0846 87bd
00000230: 873b 333d 953c a23d 7081 8dbc 15cc 443c
00000240: fe89 6cbc e027 babc 399d a2bc 34ee 463d
00000250: 9971 093d 271e 78be d7de 1f3d 4d43 913c
00000260: 434c b5bc 2088 dc3c 7411 943c dedb 88bd
00000270: 3a71 85bd f9b4 72bd 8f70 d8bd 0f6d 26be
00000280: bd22 5ebe b985 71bd 170a c0bd c2f5 253d
00000290: 5115 99bc 5bc7 83bc 1e44 2dbd c1dd 13bd
000002a0: 4ebf be3d a955 b1bc fd5c aa3d aef4 95bd
000002b0: e160 823c 11b8 81be d5a3 a4bd bc3d 3ebd
000002c0: c761 153d 5b9c 3dbe 294b d13d 5606 833c
000002d0: 1566 c5bd 0112 80bd 6c48 4bbd f2f6 033d
000002e0: 1ec1 febc 9312 543d 8860 05bd 7aae 393d
000002f0: 1491 4f3d 0212 4dbd c840 bdbc 3a06 dabc
00000300: a390 993d d52d 563d bfeb 79bd 5d07 80bb
00000310: 58f4 b7bc c4fc 583c 758f ef3c 5f29 ed3c
-0.025660789 -0.025749587 -0.0018001318 -0.04913827 -0.0036081627 -0.061566077 0.030495863 0.025087371
0.046831727 0.009875964 -0.056259003 -0.10189552 -0.048122365 -0.041306835 -0.051628362 -0.049398262
-0.18508387 -0.12671417 -0.047582813 -0.017810693 -0.18879461 -0.06032436 -0.09931529 0.022203194
0.004452765 0.019914284 0.044125497 0.009333177 -0.0037667553 0.06313704 0.0049430104 -0.048934467
0.026203055 -0.034443267 0.0035346055 -0.093189545 -0.014568581 -0.041156594 -0.00089139346 0.0108743645
-0.07252987 0.0030472518 -0.09232976 0.06964922 0.019302089 -0.008454082 0.023671266 -0.09304551
0.0011185654 -0.00069676514 0.018627979 -0.030739704 -0.017258149 -0.08059095 -0.060619712 0.055435177
0.01495189 -0.0088830395 0.0006213217 -0.030138385 -0.024902651 -0.04134877 0.059628047 0.019030593
-0.055929042 -0.042870894 0.054116476 -0.017219743 0.034872863 -0.041293137 0.030883202 -0.0743647
0.09182298 -0.07108854 0.065289006 0.03653133 -0.31165206 -0.06475048 -0.05504892 -0.4231168
0.06161326 0.017881198 -0.011804679 0.04941222 -0.065273166 -0.009736594 0.037273623 -0.33375424
-0.008720727 0.05803275 -0.0010397357 0.00053596543 -0.047616553 -0.028694455 0.063807085 -0.034147725
-0.013497469 -0.0056143515 -0.025637273 0.022196645 -0.03785444 0.06519368 0.099965155 -0.22966902
-0.103075564 -0.12850562 -0.04721459 0.020433864 -0.016712012 -0.00061556615 -0.067192554 -0.04143104
0.08389741 -0.016596563 -0.111137606 -0.040173866 -0.08644284 0.07311642 0.030076088 0.005081375
-0.04005555 -0.12108553 0.04315452 -0.058511447 0.0021867226 0.07911531 0.05195803 -0.011111034
0.023566153 0.05618593 0.039681636 -0.08307483 -0.1723526 -0.17326085 0.035651986 0.044299506
-0.21620846 -0.048566326 0.05121018 -0.06605154 0.04375794 0.07921711 -0.017273635 0.012011548
-0.014437197 -0.022724092 -0.01985036 0.048567012 0.0335556 -0.24230252 0.039030876 0.017732287
-0.022131091 0.026920378 0.018074729 -0.06682561 -0.06515737 -0.05925462 -0.10568344 -0.1625254
-0.21692939 -0.05896542 -0.093769245 0.040517576 -0.018686922 -0.016086271 -0.04230129 -0.036100153
0.09313832 -0.021647291 0.08318517 -0.073220596 0.015915336 -0.25335744 -0.08039061 -0.046445593
0.0364702 -0.18516676 0.10219414 0.015994232 -0.09638611 -0.06253434 -0.049629614 0.032217927
-0.031097945 0.051775526 -0.032562762 0.04533241 0.050675467 -0.050066 -0.02310218 -0.026614297
0.074982904 0.052289803 -0.06101584 -0.003907128 -0.02245538 0.013243858 0.02924321 0.028950391

a2c_network.actor_mlp.4.weight f4 [100, 200]
00000000: bce1 4c3d 0fd3 2cbd 16dc 81bd 8a63 ef3d
00000010: e1de ebbd 1c5f 23bc fdd2 cf3d bd55 b63d
00000020: 9588 cd3c eabe 06bd 3410 1bbe 98c7 cd3c
00000030: 68e5 ad3d eb52 adbd e124 e4bd 805a 2e3d
00000040: 6c6c 9b3d 9608 5e3d cbe5 893d ffa1 bbbc
00000050: d9c2 583d 9f65 ab3d 1709 673c 73cf 44bd
00000060: ecd4 15be d7ce ec3d 9926 563c abcf 42bd
00000070: 78e6 a5bd b7f0 9c3d 68dd 50bd 071c 02bd
00000080: d545 19bd f09e 3cbc 5c84 e03b f165 ea3c
00000090: e5ea 2d3d bf27 83bd 8f36 e9ba 1a7f 9f3d
000000a0: 11c2 de3d 54dd 623d 09ee 42bd 15df d7bd
000000b0: 6857 d33d 9ef5 9cbb 66bf a2bd 6fee 54bc
000000c0: 0f8c babb 9cdc b63c 977c c73a 43b1 4c3d
000000d0: c9c1 3f3d a3ff fcb9 cc01 15bd e65b b6bd
000000e0: 3c02 a43d f7f9 113d 8473 89bc a9b9 433d
000000f0: 0985 e3bd d1e0 0cbd 0cdc 80bd e62e 0e3e
00000100: 4d0d f1bc 16a6 6abd abcb 7c3d 4063 19bd
00000110: f885 8fbd eaac 7dbd d670 163c 44e0 debc
00000120: 24f0 003e 3a53 27bd 8739 813c 628d 973d
00000130: c86c b43d c0d0 713c c371 07bd 614c 933d
00000140: 85aa 50bd 31ab aabb 2d3b afbd c739 c3bb
00000150: 8e56 5abd ba8e 8cbd a638 a9bd 265e d43c
00000160: 9842 cf3d 17cd 61bd 71a7 b2bb ecf2 893d
00000170: da35 d1ba 1c4b 8a3d e61f 4f3d e38e 8bbd
00000180: 0ba6 06bd c0fa ee3b 95f0 503b d34f ef3c
00000190: 5666 28bd 7c5e 13bd fb9c 223b 8431 1fbd
000001a0: a527 a7bd 467d 023d 1ede 02bd 712b 353c
000001b0: 2a35 a13d b478 fabd 56d8 4fbd 91e4 f63c
000001c0: b155 d73c c7af 4fbd 4533 0d3d 865d 1c3d
000001d0: ef5d 05bd 2653 96bd 11e8 ee3c 39d3 fe3d
000001e0: c904 643e 2ad0 a1bc 0cbd 4b3d 3826 90bd
000001f0: 290c 7fbd 59bf 483d 4141 98bd 7e01 a4bb
00000200: 5db5 d13c 7393 f0bc b20b a33d 296c 94bd
00000210: 02ea a2bd c5f7 4c3d d591 043e 9520 8cbc
00000220: 28df 64bd 2ea5 55bc 8e53 5f3d f865 8bbc
00000230: d913 f6bb cbe7 b93c 9716 31bd af91 343c
00000240: 59a7 583a b461 9d3d 6a40 7c3d 4e0c 0dbd
00000250: eb34 d03c fcfc b83d c9e9 2a3d f131 bf3d
00000260: 7cdd f03c 5b64 e33a e104 6bbd 3570 d93c
00000270: 56f7 cc3d e8c8 08be 9d2c acbd e809 57bd
00000280: 4039 babb af2c 53bc 7849 053d 9fbf a63c
00000290: 99a0 843d 1c3d 143c 5150 243d 24ba 3bbd
000002a0: ba5e 1dbd f573 733d 5a72 173c e052 b0bd
000002b0: 7fc6 573a d15d 73bd f5cf bdbd 05f2 003d
000002c0: 8778 49bd 9d46 d73b 39bc 7fbd 3558 043e
000002d0: 445b 41bd 1ab2 e4bc 4533 cabd 6f9b 1dbd
000002e0: 92ad fbbc 0f88 833d 1d4c 94bd c270 8d3c
000002f0: 9fe5 a8bd f2ab 683d 1d43 02bc 9a23 06bd
00000300: 8786 59bd 87af 2ebd a560 fe3d f8d0 073e
00000310: b505 283d c2e1 1bbd a4ad 4a3b 1334 c63c
00000320: b2e9 78bd 1de5 febd f589 113d 9404 48bd
00000330: 1b42 2e3c e072 c53d f6cc 69bd c4d9 2a3d
00000340: 9736 403d b5e6 a23c 2837 533d 2ddf 6e3d
00000350: 7187 5bbd 7bf8 393c 97be 11bd d797 843b
00000360: 6954 40bd fe22 af3d 9b80 a3bd b091 8fbd
00000370: b473 853d 023d e93c 410f a8ba 958a 8fbc
00000380: c2c8 1e3d 016f d9ba 8792 d73d 1382 c83d
00000390: 2aa3 8c3d 9009 f03c d216 9e3d 380a 8b3d
000003a0: ac30 953d 276a 093d c24c 3dbb d51e 963d
000003b0: 39b3 153c b3a7 96bc e4f3 48bd 8827 023d
000003c0: 57b3 43bd 6ed8 c1bd 6426 86bd 3446 8d3d
000003d0: a975 a4bc 1b0b e93d 63fc a5bd b2c6 21bd
000003e0: b10b b6bd 992b 323d 01d6 77bd 51fe 9bbd
000003f0: 8a0c 833d a9da f7bc 3d96 b33c 3680 893c
0.050019965 -0.04219347 -0.06340806 0.116889074 -0.1151712 -0.009971406 0.10147665 0.08903072
0.025089541 -0.032896914 -0.151429 0.025119588 0.084910214 -0.08463081 -0.111398466 0.042566776
0.07589039 0.054207407 0.06733283 -0.022904394 0.052920196 0.08368992 0.014101288 -0.0480494
-0.14632004 0.11562889 0.013070726 -0.04756133 -0.08100599 0.076631 -0.0509924 -0.03176501
-0.037420113 -0.011512503 0.006851716 0.028613063 0.04246034 -0.06404065 -0.0017792749 0.077879146
0.10876859 0.055386856 -0.04759029 -0.105405964 0.10319406 -0.004790022 -0.079466626 -0.0129963
-0.005692966 0.022321992 0.0015219626 0.049973737 0.046815667 -0.0004825565 -0.036378667 -0.08904247
0.08008239 0.035638776 -0.016778715 0.04778448 -0.11109359 -0.03439409 -0.062919706 0.13885078
-0.029425288 -0.0572873 0.06171767 -0.037448168 -0.070079744 -0.06193248 0.009182176 -0.027206548
0.12591606 -0.040850855 0.015774501 0.074000135 0.08809811 0.014759243 -0.033067476 0.071923025
-0.05094387 -0.005208396 -0.08556209 -0.0059578153 -0.0533052 -0.068631604 -0.08262758 0.0259238
0.101201236 -0.05512723 -0.0054520895 0.06735787 -0.0015961484 0.06752607 0.05056753 -0.06814363
-0.032873195 0.0072930753 0.003188168 0.029212868 -0.04111322 -0.03597878 0.0024812806 -0.03886558
-0.081618585 0.03185775 -0.03195011 0.0110577205 0.07871468 -0.122300535 -0.050743423 0.030138286
0.026285978 -0.050704744 0.034472723 0.03817513 -0.032560285 -0.07340078 0.029163392 0.12442631
0.2226745 -0.01975258 0.049740836 -0.0703854 -0.062267456 0.04901061 -0.07434321 -0.0050050607
0.025599176 -0.029367184 0.07961215 -0.072471924 -0.0795479 0.05004098 0.12946256 -0.01710538
-0.05587688 -0.01303987 0.054523043 -0.017016396 -0.0075096902 0.022693535 -0.043234434 0.011021062
0.0008264683 0.07684651 0.061584868 -0.034435563 0.025415858 0.09032628 0.04172686 0.093356974
0.029402487 0.0017348634 -0.0573777 0.026542762 0.10008113 -0.1335789 -0.08406947 -0.05249968
-0.0056830943 -0.012889071 0.03254077 0.020355044 0.06475944 0.009047773 0.04011566 -0.045831814
-0.038420416 0.059436757 0.009243572 -0.08609557 0.00082311773 -0.059415642 -0.0926818 0.031480808
-0.04918721 0.006569697 -0.062435362 0.12924273 -0.04720618 -0.027916957 -0.0987306 -0.03847831
-0.030722413 0.064224355 -0.0724108 0.017265681 -0.08246922 0.056804605 -0.007950571 -0.032748796
-0.05310681 -0.042647865 0.12420777 0.13263309 0.041021068 -0.038057096 0.0030926252 0.024194753
-0.060769744 -0.12446044 0.035531957 -0.04883249 0.010635878 0.09641051 -0.05708023 0.041711584
0.04692706 0.0198854 0.051566273 0.058318306 -0.053595964 0.011350746 -0.03558215 0.004046421
-0.0469555 0.08551596 -0.07983514 -0.070102096 0.06516209 0.028471474 -0.0012821929 -0.017522136
0.038765676 -0.0016588868 0.10525995 0.09790435 0.068670586 0.029301435 0.077191964 0.067890584
0.07284674 0.0335485 -0.0028884863 0.073300995 0.009136968 -0.018390512 -0.049060717 0.03177598
-0.047778454 -0.09465109 -0.06550291 0.06898156 -0.020075636 0.11379071 -0.081047796 -0.03949613
-0.08888949 0.04349861 -0.060506824 -0.076168664 0.06398876 -0.030255632 0.021922225 0.016784769

a2c_network.actor_mlp.4.bias f4 [100]
00000000: 001e 8a3d 957a 8ebc c219 033c 5d5b ef3c
00000010: 1549 b93c 2ba7 1dbd 39ed 00bd 238f 9d3c
00000020: 80f9 5a3c aa64 3dbd 7acc 96bc 3d38 3339
00000030: 1744 c7bc f1c3 593d 323b d73c 3dfc b4bc
00000040: 4844 cd3c ac99 663b 3a71 c83d e92e 113d
00000050: 0936 0f3c d169 e53c bab3 67bd 7ca6 d03d
00000060: af44 0dbc c010 4abd 66c3 a1bd e8d0 a33c
00000070: 2bb8 0f3c b851 f9bd 5c0b e83b ad4d 393d
00000080: 09e5 c53d 759c 723d 00f6 60bd 340d f3bd
00000090: dedf 1d3d bc38 60bd 9eb0 5d3d 87b6 bdbc
000000a0: 2ebe c0bc 06e4 2dbd 4e73 8e3d b051 c1bc
000000b0: 3b59 2e3c 26c9 48bd e82c 44be 2731 27bc
000000c0: c52b adbd 5b50 79bd 4f88 26bc c24e 783c
000000d0: 55e2 923c 245e 13be 7786 d03a 0d19 97bd
000000e0: 251a 603c 8362 8a3d a4d1 e13c fedd 953d
000000f0: e1f6 403b dc86 b3bc 4730 cbbc 9406 53bc
00000100: 38f3 6c3d d446 17bd 687c f43c 28f1 dd3d
00000110: f032 133c d7d3 6b3d 05aa a33d 360e 42bc
00000120: 63cc 4abd 7aaa 413d d895 bcbc 7b76 03bd
00000130: fcef 943c 0d36 1abc 2049 833c 6482 36bd
00000140: a4b1 dabc 9026 08bc 1ff1 84bc c1b6 5d3d
00000150: e2f2 bbbc 531d bf3c 3aa4 783b 3f42 3abd
00000160: 1096 78bd 8b75 52bd 78bb b3bd bbb9 06bd
00000170: 7122 0dbd a17d 7f3c b77c 133c e6a0 023d
00000180: dae7 bfbb ce94 2bbd b71d 55bd beca 293d
0.06744003 -0.017392436 0.008001747 0.02921837 0.022617856 -0.038489502 -0.031476233 0.019233292
0.0133651495 -0.04623858 -0.018408049 0.0001709172 -0.02432446 0.05316538 0.026273344 -0.022092933
0.025056973 0.003518681 0.09787221 0.035445128 0.00874091 0.028004559 -0.056567885 0.101880044
-0.0086223325 -0.04933238 -0.078985974 0.019997075 0.008771936 -0.1217379 0.0070814323 0.045240093
0.096628256 0.05923124 -0.054922104 -0.11867753 0.038543575 -0.054741606 0.054123513 -0.023158325
-0.023528185 -0.04245379 0.069555864 -0.023598522 0.010641391 -0.049019955 -0.19157755 -0.01020459
-0.08455614 -0.06086765 -0.010164334 0.015155496 0.01793019 -0.1439138 0.0015909214 -0.07377825
0.013678108 0.06757071 0.027565785 0.07317732 0.0029444026 -0.021914892 -0.024803294 -0.012879986
0.05784914 -0.03693278 0.029844478 0.108370125 0.008984312 0.057575073 0.07991413 -0.011844208
-0.049511325 0.04728172 -0.02302067 -0.032095414 0.01818084 -0.009412301 0.01602608 -0.044557944
-0.026696034 -0.008309975 -0.016228257 0.054129366 -0.022942964 0.023329413 0.0037939684 -0.045473333
-0.060689986 -0.05138163 -0.08775991 -0.03289197 -0.034456674 0.015593917 0.009001902 0.031891726
-0.0058564963 -0.041889958 -0.05203029 0.041453116

a2c_network.mu.weight f4 [21, 100]
00000000: fd1b 8cbd bf65 d0bd 43bd 923d 13e4 cd3d
00000010: c28d c23d 1a9f 463e a7d4 f13d 2b2c 933c
00000020: b857 a73c 2800 d6bd 1a2e 083c b25b 1f3e
00000030: ac37 2abd e510 babd 083f 183e 5c07 df3d
00000040: 97d5 17be 84b4 2b3e f10f d4bd 4b0e 5ebd
00000050: 7eeb 023e 3179 153d 6840 5abd 24d4 023e
00000060: 7784 96bd da4a ef3d c499 4b3d 003e a9bc
00000070: 4b13 9ebd 608e 7a3d bf15 07be 0a23 5b3d
00000080: cba9 4d3c b6ef 30bd 63cc cbbd 3482 b5bd
00000090: ed56 e0bc 45f7 863c 3cf2 30bd 70dc d03d
000000a0: 1bbb 48bd e053 88bd 756a a33d 4062 f33d
000000b0: 7353 21bd e12f b93d d265 9d3d 7768 963d
000000c0: 1f73 16bd 3ed3 6e3d feff 30bd 5c6e e4bc
000000d0: 625e 08bd f366 b73b 7ca9 d9bc 20fb 07bd
000000e0: 4b4a ab3d 3c5b 54bd 1840 abbd a5a2 233d
000000f0: e08d af3d 8c5a e6bb 2f8e a3bd 52c5 52bc
00000100: 29ff 303d 02f9 adbd 8afa 4bbd 84da a23c
00000110: 1f5d fb3c 3d0f 023d 8313 0dbe de11 61bb
00000120: be55 4abe 2a70 19bc 8587 e5bc 70cd 983c
00000130: fa9e bdbd 52c5 ccbd c1b5 903d 5b31 6bbc
00000140: 2f32 14be 291c 863b be1c d23d 2468 01be
00000150: fb90 cabc dda2 d73d 8c39 9a3d f6c5 d53b
00000160: 6d21 36bd e701 293b a968 be3c a252 003d
00000170: f68a 49bd 0031 e1bd 72da a4bd ccfd aabd
00000180: ea13 10bd 6fa6 553e 42ff f93d 7082 323e
00000190: 87ab 923d 7457 bcbd 3463 bfbb ad60 df3d
000001a0: 06ae 80bd 1709 66bc e291 8f3d 81bc 89bd
000001b0: 8776 873d ec4e f2bc ebd1 2c3e 7abb c7bc
000001c0: 87f1 8e3d 613a 89bc 50fe ff3d 6d8a 883c
000001d0: 0370 4f3e 1b28 d7bd f390 8f3d 6169 593c
000001e0: ce71 37bc 6bc8 17bd dcef d63d 5b9a 323d
000001f0: 625d 9b3d 3e11 013d dd05 3abd 5c43 fe3d
00000200: 016c 2abd 0f22 8a3c 3285 6abd 2a11 793c
00000210: f89f a43d 2d73 3a3d 56f7 ca3c 397e 27bd
00000220: 7471 67bd 2096 3ebb 8a10 26bd 1fb7 00be
00000230: 54e1 793d dff2 07be 457b c53d 8e67 f0bc
00000240: f0f8 ecbd 10ee 30bd 4567 0bbd 3315 6f3c
00000250: b64a d9bd 7d06 183c bc25 0c3d dbf2 073e
00000260: 6209 eabd 7ff6 7fbd 0036 073d 704a 673c
00000270: 275e a83d efa4 53bd 486d 69bd 39b7 003e
00000280: 8742 563d d924 a63d 68b4 333e eb2e 013d
00000290: c9e8 883d a140 a2bd 6ca8 04bc 465a 823c
000002a0: b96c a53d 25a8 2fbe 1830 c43d 8f28 a83c
000002b0: bad2 19be 9406 a0bd 9f82 153d a923 a93a
000002c0: 3d8c 07be d2a0 6b3d 730b 49bd d835 273d
000002d0: 19ec 34be a395 bdbd 1ad3 673d 2a86 cdbd
000002e0: 7e23 e63d 62af 14be 0528 b4bd 60dd 66bc
000002f0: 76ad ba3d e408 673d e47d 7e3c c410 643d
00000300: dfd6 b93d 50dc ddbd 96ca 53bd e770 b43d
00000310: df43 82bb 5eec c5bc 87ae 183d b77a a5bc
00000320: caf0 16bd c2ba c03d 3c04 963d 485f 323e
00000330: cc96 a33d 565a 5d3d fc75 01bd 0f85 78bd
00000340: 9f86 a63d 2eac 163d 7fcf 503e e757 d23d
00000350: 6516 abbd 58d0 cd3d f29d a5bd c75b f23d
00000360: 3962 b2bd 0974 4f3e 53a5 8abc 27ed 353c
00000370: 7fbb 353a 1622 a8bd f9f5 8b3d fc36 0ebd
00000380: 4c84 883d 6bc4 4ebd 14e3 083e f320 483d
00000390: bd0f 44bd c548 83bd 574a 2cbd a5ac 3d3d
000003a0: 9664 973d 931e 15be 6aaa f63d 15bb b5bb
000003b0: 3585 b7bd 3821 a4bc 34d8 cc3d 712b 543d
000003c0: a0b0 c9bd 4e3d ca3d 12b1 a23d deab cfbd
000003d0: db5a 183b af2e 003d b321 983c 1a4a 72bc
000003e0: a803 cebd 8514 95bd 428d b7bd 786d 88bd
000003f0: 91cb 063e ff3e 97bd 3ad3 b83d ccfa ac3c
-0.06841276 -0.101756565 0.07165005 0.10053267 0.094996944 0.1939663 0.11808138 0.017965397
0.02042757 -0.104492486 0.008311773 0.15562323 -0.041557 -0.090852536 0.14867795 0.108900756
-0.14827572 0.1676808 -0.10354603 -0.05421285 0.12785146 0.03649253 -0.05328408 0.12776238
-0.073494844 0.11684199 0.04970719 -0.020659447 -0.077185236 0.061170936 -0.13191889 0.053500213
0.012552689 -0.043197356 -0.09951093 -0.08862725 -0.0273852 0.01647533 -0.043199763 0.10198295
-0.049006563 -0.06656623 0.079792894 0.11883974 -0.039386224 0.09042335 0.07685436 0.07344144
-0.03673088 0.058306925 -0.043212883 -0.027884655 -0.033293135 0.0055969893 -0.026570074 -0.033198476
0.0836378 -0.05184482 -0.08361834 0.03995003 0.085719824 -0.007029837 -0.07986104 -0.012864428
0.04321209 -0.0849476 -0.04979948 0.019879587 0.030684052 0.031752814 -0.13776974 -0.0034342925
-0.1975927 -0.009365121 -0.028018722 0.018652648 -0.09258838 -0.09998573 0.07065917 -0.014355029
-0.14472269 0.0040927124 0.102593884 -0.12637383 -0.024727335 0.105291106 0.075305074 0.006523843
-0.04446547 0.0025788487 0.023243265 0.031328805 -0.04920479 -0.10995674 -0.08049478 -0.08349189
-0.03517524 0.2086427 0.1220689 0.1743257 0.071616225 -0.09196368 -0.0058406834 0.10907111
-0.06283192 -0.014040253 0.07010247 -0.067254074 0.06614404 -0.029578649 0.16876952 -0.024381388
0.069796614 -0.01675147 0.12499678 0.016667569 0.20257573 -0.105056964 0.07010069 0.013269753
-0.011196567 -0.037056368 0.10494968 0.043604236 0.07586171 0.031510584 -0.045415748 0.124151915
-0.041606907 0.016861944 -0.05725593 0.015201846 0.08038324 0.045519996 0.024776142 -0.04089186
-0.05650468 -0.002908118 -0.040543117 -0.12569855 0.061005905 -0.13276242 0.096426524 -0.029346254
-0.115709186 -0.043195784 -0.034034032 0.014592457 -0.10609953 0.009278891 0.034215674 0.13276236
-0.11427571 -0.062490936 0.033010483 0.014116868 0.08221083 -0.051670965 -0.056988984 0.12569894
0.05230954 0.08112497 0.17549288 0.031538885 0.06685025 -0.07922483 -0.0080967955 0.015912186
0.08077378 -0.17153986 0.09579486 0.020527152 -0.15021792 -0.07813755 0.036501523 0.0012904304
-0.1323709 0.057526417 -0.049083184 0.040822834 -0.17668189 -0.092570566 0.056597807 -0.100353554
0.11237238 -0.14520028 -0.087966956 -0.014090866 0.09115116 0.056404963 0.015532944 0.05568005
0.090741865 -0.10833037 -0.051706873 0.08810597 -0.003975376 -0.02416056 0.037275817 -0.020200117
-0.036850728 0.09410621 0.073250264 0.1741916 0.079877466 0.05404123 -0.03160666 -0.06067377
0.08131146 0.036785297 0.20391653 0.10270672 -0.08353881 0.10049504 -0.08086766 0.118339114
-0.08710141 0.20259108 -0.016924536 0.011103905 0.0006932541 -0.082096264 0.06834025 -0.034720406
0.066658586 -0.050480288 0.13367873 0.048859548 -0.04786657 -0.06410364 -0.042063083 0.046307225
0.07392232 -0.14562444 0.12044223 -0.0055459836 -0.08960954 -0.020035371 0.10002175 0.05179924
-0.09848142 0.09874974 0.0794393 -0.10140203 0.0023247513 0.03129452 0.018570757 -0.014788175
-0.10059291 -0.072793044 -0.0896249 -0.066615045 0.13163592 -0.073850624 0.09024663 0.021115683

a2c_network.mu.bias f4 [21]
00000000: a8d1 9bbc b07e 2a3d 4ad0 3cbd ebcc a6bd
00000010: b73e c4bc e042 2abd 760c 513d 4144 2ebd
00000020: ccba df3c 7d89 bd3c 9a8d 89bd a214 3b3d
00000030: 8904 c5bc 47d3 03be d1f6 e93d 447a 96bd
00000040: f0b5 d53d 6749 dc3d efea 9ebd d022 bbbd
00000050: d4b6 0d3d
-0.01902087 0.041624725 -0.046097077 -0.08144554 -0.023955686 -0.041567683 0.051037274 -0.04254556
0.027310751 0.023136849 -0.067164615 0.045673974 -0.024050014 -0.12873565 0.114240296 -0.07347539
0.104350924 0.10756188 -0.07759654 -0.09137499 0.034598187
