eval/pretrained_ant_converted.pth (torch, 236552 bytes, 16 tensors)

running_mean_std.running_mean f8 [60]
000000 39 b5 62 13 36 eb e2 3f c7 b9 67 26 79 54 0c 40
       0.5912123087524953 3.541246700325448
000010 76 c2 13 32 28 a3 d1 3f 6b d3 fc 0c 73 23 df bf
       0.27558331384992785 -0.48653866070099266
000020 75 32 38 69 bd 85 a2 3f 66 c1 9e 42 ee b9 7a 3f
       0.0361766043607518 0.0065249735870767985
000030 32 a2 f6 26 4b 5a 95 bf f6 1d e7 6f 99 50 04 40
       -0.020852255108964886 2.5393551580816576
000040 d9 c0 bd 55 63 29 0b 40 84 3f 07 f6 d7 51 04 c0
       3.3952089975865474 -2.5399626942598292
000050 35 e2 c9 3a b2 8d ed 3f f7 db 6c 7a 62 0b ea 3f
       0.9235469005789755 0.8138897315137673
000060 d3 5b 9c bb 9c b2 ca 3f 52 d7 96 78 63 9d e7 bf
       0.20857581291849545 -0.7379624705560934
000070 65 69 76 36 ba 02 b8 bf 82 f0 30 41 6a fc e7 3f
       -0.09379161672260279 0.7495623849167858
000080 fc 35 53 9b 7a dd 90 bf 88 30 ad 3d bd 79 e7 3f
       -0.01646987507847618 0.7336107449168745
000090 22 1f f5 37 3f 51 e7 bf 33 85 0f da af 32 e5 bf
       -0.7286678402824445 -0.6624373682972532
0000a0 e1 25 64 00 66 6e 85 bf c4 e5 d3 40 23 a3 a6 3f
       -0.010464474570215767 0.04421339193681775
0000b0 e4 26 96 0b bc a8 93 3f c1 a1 e8 11 a4 21 b3 bf
       0.019198358733354307 -0.07473206937050404
0000c0 eb f3 03 a8 47 b2 84 bf bf 3f 1c 85 d3 dc ad bf
       -0.010105666937755905 -0.05832539558298277
0000d0 41 72 44 d9 d0 f2 a8 3f 22 0f e5 7e 9e b1 ae 3f
       0.04872753765286975 0.05994887637146308
0000e0 ed a0 cb b5 c9 39 cb 3f f7 ee d2 4c 05 54 96 3f
       0.212701047675416 0.021804888547861414
0000f0 ab 86 b7 ed 4c 59 d6 bf e8 16 e0 2e 53 6c a6 bf
       -0.34920047010937577 -0.04379520365914208
000100 e0 c9 a1 aa c1 ee 5a 3f ad ce 24 57 9c 7b 73 bf
       0.0016438380503386238 -0.004756556229313408
000110 cc 32 e2 9d 3e e2 29 3f 37 63 e6 3b 06 e9 8d bf
       0.00019747747768796562 -0.014604614928246924
000120 7f d1 32 d8 5e 03 cf bf ee 0e 39 ea 8e 16 b1 bf
       -0.24229035908286886 -0.06675046175319796
000130 4a 5e b7 d4 db 98 47 3f 88 ab 06 03 19 02 81 3f
       0.000720126475637303 0.008304782299850336
000140 7f a0 31 a4 d2 52 c7 bf 57 9f bd c4 e4 ef 98 3f
       -0.18221505181577766 0.024352621563053258
000150 7f e9 35 f7 73 1d cd bf 3a 85 6e d3 23 1c b1 3f
       -0.22746133395032683 0.06683563148410068
000160 00 8f b8 ac c8 93 43 3f 0a 35 69 62 04 93 7a bf
       0.0005974511963739715 -0.006487862707740941
000170 51 1b 27 af 9e 0d e2 3f f3 50 f2 eb b9 96 ad bf
       0.5641625805809359 -0.05779057507712251
000180 74 ab fe 1f b9 f3 d0 bf 5a 0d 94 e0 d5 f8 a6 3f
       -0.2648756802033667 0.04486721388277699
000190 86 35 6d 6f b3 88 73 3f 45 db 8b bf d7 4a 9d 3f
       0.004769040030465082 0.028605814996775853
0001a0 78 ea 2c 1c 46 0b b5 3f 0f 83 72 07 58 a7 c5 bf
       0.08220327556493057 -0.1691694294322805
0001b0 c6 d9 05 9d d2 d1 a2 bf d7 2f 17 8e 76 d8 d0 3f
       -0.03675707022459877 0.26321185947449294
0001c0 dc 88 c0 ba 74 cc a0 3f 87 fb e8 b4 f4 88 d0 3f
       0.032809875294576435 0.2583591238689497
0001d0 05 1c 6f 3e fd 6a d9 bf 34 37 59 38 b0 61 c5 bf
       -0.39715510460922615 -0.16704371215240033

running_mean_std.running_var f8 [60]
000000 a8 20 84 a7 2e c0 87 3f 72 be 17 e2 48 33 12 40
       0.01159702728956831 4.550082714747633
000010 13 a4 43 b8 21 31 02 40 fa e3 31 36 87 9b e5 3f
       2.2739900966303224 0.6752353723996969
000020 c1 f8 66 2b 0f 56 10 40 ea 7c cc cd 27 a8 12 40
       4.084042242202657 4.664214339834169
000030 3e 71 d6 6b b4 0d 33 40 fe 2a 1c 61 e2 99 1c 40
       19.053534259656992 7.150277631134257
000040 ae e0 d0 b9 b8 e0 21 40 98 7a c4 ba e1 99 1c 40
       8.938909346339951 7.150275152437324
000050 41 01 4e 26 5c 32 b2 3f 19 fb 7c 82 7b cb bd 3f
       0.07108093199895384 0.11638614593264797
000060 95 c1 2e 30 61 a5 df 3f 03 14 63 4b 8f 8c c1 3f
       0.4944689722570044 0.13710204297072445
000070 d4 5f ce 77 9b 77 e0 3f 62 2c 57 07 59 8a c7 3f
       0.5146005001033651 0.18390953882621647
000080 a2 7e 81 5b 61 fc e0 3f 49 d8 4c b5 8f b6 ca 3f
       0.5308081423972519 0.20869633057162876
000090 60 84 5a ad 5e 72 c6 3f af 4a e5 5b 19 11 c7 3f
       0.1753652903035201 0.18020932185262015
0000a0 61 fe 32 29 06 83 09 40 97 12 c2 4a 17 82 f9 3f
       3.1889765947997124 1.5942604942548877
0000b0 5f bd ea 56 02 a0 1b 40 b8 15 4a 1b e1 d2 f7 3f
       6.906258924558045 1.4889842096321058
0000c0 51 df f0 26 c7 de 16 40 19 73 8f fc e8 c0 f4 3f
       5.7175565800206 1.2970971933020279
0000d0 53 8c ce bc 3e 3c f7 3f fb a3 4d 87 f5 34 00 40
       1.4522082686678643 2.025858933503057
0000e0 a9 fb 57 0c e8 d6 f3 3f 3f 5a 25 dd 86 44 c7 3f
       1.2399673921752117 0.18177877233638814
0000f0 c6 4c 1c a3 dc f6 ef 3f 08 53 e8 5c 8e 29 93 3f
       0.9988845048668729 0.018713211460709395
000100 44 1f f2 75 24 56 09 3f 36 a6 5d 69 4f f8 77 3f
       4.832552689842823e-05 0.005852041436676772
000110 96 51 84 ab 02 1b 01 40 13 55 9f e2 64 3e c6 3f
       2.1381886863475286 0.1737791163019798
000120 ff 14 a6 3d 37 3f f1 3f 49 fb 05 cc da 9c 97 3f
       1.077933541121922 0.02305929060230064
000130 77 e3 89 dc 82 aa 11 3f 4b b6 a0 13 91 d6 89 3f
       6.739066805917607e-05 0.012616284762852056
000140 f8 72 33 77 0d 82 fe 3f d8 b6 65 11 db 8d c2 3f
       1.9067511230743417 0.14495409345129562
000150 6f e8 11 56 03 5d e7 3f 87 90 37 c1 84 29 92 3f
       0.7301041298917549 0.017736505787880687
000160 03 9a 47 b5 a5 75 0d 3f 9b e6 2c fe ae 8e 87 3f
       5.618965102254308e-05 0.011502616054360806
000170 c9 06 40 b6 a0 fd fd 3f 42 5b 69 78 62 b0 ca 3f
       1.8744208449501676 0.20850783233137277
000180 83 3d da 4d 24 c0 f7 3f 76 41 41 58 0d b2 9e 3f
       1.4844096222985577 0.02997608996548836
000190 b5 b3 87 a2 21 2a 13 3f c7 d0 a9 f2 12 92 76 3f
       7.310705462488974e-05 0.005510400786637066
0001a0 5e 3d 9c 8a ad 09 df 3f ca 85 5f 53 c7 59 d4 3f
       0.48496569191134664 0.31797965185077415
0001b0 b4 da c9 54 a2 24 e0 3f 62 fb 42 5e 3a 06 da 3f
       0.5044719368005048 0.40663012700308887
0001c0 66 77 b6 d4 a0 6f e1 3f c8 09 38 48 47 37 d6 3f
       0.5448764948412019 0.3471239285719574
0001d0 44 35 2c d5 a4 3f d7 3f c8 15 fc 71 57 1f da 3f
       0.36325951402325907 0.40816293841666296

running_mean_std.count f8 []
000000 00 00 00 10 00 40 7f 41
       32768001.0

value_mean_std.running_mean f8 [1]
000000 70 1c f4 d7 70 5b 0e 40
       3.794648825776271

value_mean_std.running_var f8 [1]
000000 22 e6 f8 9d 95 18 08 40
       3.012004121931356

value_mean_std.count f8 []
000000 00 00 00 08 00 40 8f 41
       65536001.0

a2c_network.actor_mlp.0.weight f4 [256, 60]
000000 e4 e6 81 3e fe d4 1e bd 93 8a a4 3d 98 ba 65 3e
       0.25371468 -0.038777344 0.080342434 0.22434461
000010 e0 93 14 be 3b 2b ab bd 4a 41 bb bd e1 c9 a3 3d
       -0.14509535 -0.08357855 -0.09143312 0.0799749
000020 75 ab 14 be 1f 60 b3 3d 96 21 7b be c4 fb 93 bd
       -0.1451853 0.08758568 -0.24524531 -0.07225755
000030 fb c3 9c bd 44 cc 22 bb ca 9a ec bc d4 3c a5 3d
       -0.07654568 -0.002484099 -0.028882403 0.08068243
000040 e4 38 ad 3d 69 fd b2 bd b9 59 46 be 63 2e 15 bd
       0.08458117 -0.087397404 -0.19370164 -0.03642119
000050 8e 05 f3 bd 3d 5a 6b 3d d3 f0 9c 3c eb 13 df bc
       -0.11866294 0.057459105 0.019157803 -0.027231177
000060 a6 83 94 3c 96 59 80 3c 7b be 9a bd 3d 0f b0 3c
       0.018129181 0.015667718 -0.075558625 0.021491641
000070 f6 bf cc 3d 55 d2 ce 3d 71 5c 40 bd 80 78 7b bd
       0.09997551 0.100987114 -0.04696316 -0.061394215
000080 c6 76 9b bc 75 13 09 3e 17 7b 68 3d 52 bd c2 3d
       -0.018977534 0.13386329 0.056758013 0.09508766
000090 9c 0d a5 bd cb 27 9c 3c 3d d8 3a 3d 2d db 95 3d
       -0.080592364 0.019061944 0.045616377 0.07317195
0000a0 8b a3 a8 3d 92 7c 89 3d 0c 83 82 bc 6a 50 70 bd
       0.08234318 0.06713213 -0.015931629 -0.05867044
0000b0 1a 29 68 3c 10 36 ca bc 8c 44 f7 3c ec f7 4f bd
       0.014169956 -0.024683982 0.030184053 -0.050773546
0000c0 e5 6b 9c bd 8f 03 1e bd a4 35 09 be cc 97 90 3d
       -0.07637767 -0.038577612 -0.13399369 0.07060203
0000d0 1c 91 1b 3d 4d 98 c1 3b 94 9f 25 3d a4 08 3b bb
       0.037980184 0.0059080482 0.04043539 -0.0028539086
0000e0 eb 77 82 3c 71 93 97 3d 44 27 73 bd 3d 9e 63 3d
       0.015926322 0.07401169 -0.05936362 0.05557083
0000f0 fb ae 15 be ee 21 16 3e f4 f4 1c bc 0c 77 fe 3c
       -0.14617531 0.1466138 -0.009579886 0.031062625
000100 12 b8 37 3e 5b 2c 85 3e 1a 7a 51 bd f2 1b 55 bc
       0.17941311 0.26010403 -0.051141836 -0.013007151
000110 55 90 5c be bd 3e 00 3d 73 ef 35 be 47 a8 56 be
       -0.21539433 0.031309832 -0.17767124 -0.2096263
000120 9a 59 03 3e f8 2a 84 3c 8d dc 45 be f9 a8 4c bd
       0.12827149 0.01613377 -0.19322415 -0.049965832
000130 5b 54 28 be 59 c2 5f 3d 97 b1 e8 3d 30 08 b3 3d
       -0.16438429 0.054628704 0.113619976 0.08741796
000140 cc 3f c8 bc fa dd 97 bb 3e a6 ce 3d 77 c5 1f bc
       -0.024444483 -0.004634616 0.10090302 -0.009751669
000150 19 6c 8a 3d 62 14 2b 3e 09 d7 95 3d d2 3e a9 3d
       0.06758899 0.16706994 0.07316405 0.08263935
000160 17 b3 02 bc a3 f4 34 3d 44 52 78 3d 50 5f 87 bd
       -0.007977269 0.044178616 0.06062533 -0.06609976
000170 c2 09 3b 3d 48 e8 16 be e4 42 a6 3b f3 49 9f bd
       0.045663603 -0.14737046 0.005073892 -0.077777766
000180 44 ea 75 bd f0 27 47 bd 90 12 65 3d 66 3e 98 3d
       -0.060037866 -0.04862207 0.055925906 0.074337766
000190 82 71 0a 3c 7e f2 31 be 4e 7c be 3d 36 e5 9e 3d
       0.008449914 -0.1737766 0.09301053 0.07758562
0001a0 7a 9b 10 bd 23 66 83 bd a2 d1 23 3d 96 10 c1 3d
       -0.035304524 -0.064159654 0.039994843 0.09426992
0001b0 08 5e 13 3e 45 5b 68 bd d8 c5 4c bd e1 3a c4 bd
       0.14391339 -0.056727666 -0.049993366 -0.09581543
0001c0 c3 be 9f bc 4b 8d ee bc 38 2b 0c 3d 3b 37 14 ba
       -0.019500142 -0.029120108 0.034220904 -0.0005653982
0001d0 e3 15 51 3d 33 2e d8 3d 75 51 cc bc ed 98 83 3c
       0.051046263 0.10555687 -0.024941185 0.016064132
0001e0 00 5e a9 bd c5 2f 59 3d f7 ad 3e be f8 4d 28 3d
       -0.08269882 0.053024072 -0.1862105 0.04108998
0001f0 fc e2 80 3c 86 b1 a4 bd cb 04 86 3c e7 04 b0 bd
       0.015733235 -0.080416724 0.016359707 -0.08594685
000200 5c 29 a5 3c 30 06 2a 3d 04 65 40 3c 3c 06 2f 3e
       0.020161323 0.041509807 0.011742834 0.17092222
000210 29 ab b3 3d aa 99 f6 3d 00 6e b0 bd ae 2f 39 bd
       0.087728806 0.12041028 -0.08614731 -0.045211487
000220 d5 03 8f bd 12 b4 56 be 59 75 cd 3d d1 5b d6 bd
       -0.06983153 -0.20967129 0.10032148 -0.10466731
000230 37 34 0e be be 33 13 3e 95 87 3d 3d 60 23 85 3d
       -0.13887106 0.14375207 0.04627188 0.06500888
000240 b6 30 1f be fe e6 81 3c 37 f9 a1 3d c6 23 b6 bc
       -0.15545925 0.015857216 0.07908862 -0.022233855
000250 b6 f9 df bd ab 9b 87 bd b3 c0 3f bc 94 f1 68 3d
       -0.109363005 -0.06621488 -0.011703658 0.05687101
000260 40 04 d2 3d 21 55 e4 bd 9f c9 6f 3c 32 e7 cf bd
       0.10254717 -0.111490496 0.014635473 -0.10151519
000270 1d bb d9 bd fe d8 2c bd c4 4e 34 3c 32 d7 d5 3d
       -0.10631392 -0.042199127 0.011005107 0.10441436
000280 f9 07 a5 bb 17 4a d0 bd 1a 53 da 3c 20 48 80 3d
       -0.005036351 -0.101703815 0.026650954 0.06263757
000290 6a 47 b8 3d b7 f1 c8 3c 0a 44 a2 bd 3b 19 db 3d
       0.08997996 0.024529321 -0.07923134 0.10698172
0002a0 ed 35 fd bc 22 6b bc 3c 31 53 25 3d c8 f7 f9 bd
       -0.030909503 0.023000304 0.04036254 -0.12205464
0002b0 35 0f c9 bc 95 db 65 3b 00 98 1d bd 6a 1c 9f 3d
       -0.024543384 0.0035073508 -0.038475037 0.077690914
0002c0 8b 90 d1 3c 4f b8 12 3d bf b6 2c 3e 60 63 18 3d
       0.025581619 0.0358203 0.16866587 0.037204146
0002d0 b2 46 1c be 26 d5 18 be 0d 89 86 bc a2 9f 60 3e
       -0.15261343 -0.1492506 -0.016422773 0.21935895
0002e0 86 cd d9 3e 43 8e 03 3f d0 58 b7 bd 0f a8 03 be
       0.42539614 0.5138895 -0.089524865 -0.12857078
0002f0 5d f1 4f be 83 af b1 bb b5 79 8f be 17 cc c4 bb
       -0.20306917 -0.005422534 -0.28022543 -0.0060057747
000300 e4 44 68 3d 26 10 d7 3d 34 37 89 be 4c ba d3 bd
       0.056706324 0.10501127 -0.2679993 -0.10338268
000310 da 50 88 bc 97 40 5f be 7c ff 44 3b e1 54 4a 3e
       -0.016640116 -0.21801983 0.0030059507 0.19758941
000320 57 7a ec bd 62 d4 9a bc 9e 5a 57 bc ea ed 51 3d
       -0.11546772 -0.0189001 -0.013144163 0.051252283
000330 b1 dd a5 bd 25 0d 01 3d de 82 57 bc 68 13 ee 3d
       -0.08098925 0.031506676 -0.01315376 0.11624795
000340 13 aa 27 3d ce 98 79 bc c1 bb 31 3c 09 36 27 bc
       0.04093368 -0.015234185 0.010847987 -0.010205754
000350 48 ed 56 bd db 33 57 3d 29 ce 84 bc 24 4c 1f bc
       -0.052472383 0.052539688 -0.016211586 -0.009722743
000360 75 6a 0b 3d e3 e4 99 bd df 6a d8 3c 87 70 e1 bc
       0.034037072 -0.0751436 0.026418148 -0.027519478
000370 70 6a c8 3d da 69 0d bd c8 ee 59 bd 7f f4 61 bd
       0.09785926 -0.034524776 -0.053206235 -0.05516481
000380 b1 f1 14 bd 24 24 3e bd 16 d5 b5 3d 8c 2c 47 3d
       -0.036363307 -0.046421185 0.088785335 0.048626468
000390 f7 6d 7c 3d b4 c5 8c 3d d3 87 e1 bd 30 4a 7e ba
       0.06162831 0.068736464 -0.110122345 -0.0009700386
0003a0 fc d2 1c 3c 6f 72 8e bc a4 05 c0 3d ce 46 22 3c
       0.009571787 -0.01738855 0.09376076 0.009904576
0003b0 d7 99 9e 3c 9e 8c e6 3c 2d 07 96 3d 01 97 13 3d
       0.019360466 0.028143223 0.073255874 0.03603268
0003c0 24 d0 c8 bd 37 6b ba 3d 23 22 1b 3e ca 1a ba bc
       -0.09805325 0.09102481 0.15149741 -0.022717852
0003d0 61 3c 40 3d 7a fd 89 bc c1 17 67 3e 87 0e 22 bd
       0.04693258 -0.0168445 0.22567655 -0.039564636
0003e0 ac 22 ce 3d ce 01 ee 3d 3a 5c c7 3e d6 09 26 be
       0.10065207 0.11621438 0.3893755 -0.1621469
0003f0 13 3b a5 bc f9 59 84 bd dd f2 19 be e5 5e c5 bd
       -0.02016977 -0.064624734 -0.15034051 -0.0963724

a2c_network.actor_mlp.0.bias f4 [256]
000000 7e d1 d3 bd 65 f9 76 bd 77 bc 0d bd f6 8e 35 bc
       -0.10342692 -0.060296435 -0.034603562 -0.011081448
000010 fa dc a3 3d a3 6a 8a be 94 05 20 3e a5 40 41 be
       0.08001132 -0.27034482 0.15627128 -0.18872316
000020 6a dc d0 bd 52 d6 44 be 17 9b 08 be 3c 3e 9b 3d
       -0.10198291 -0.19222382 -0.13340412 0.0758023
000030 49 89 fb 3c 14 da 3c 3c de 5b 8c 3d 73 e1 d1 3b
       0.030705111 0.011526603 0.0685346 0.0064050495
000040 a1 36 21 bd f9 2d 1c 3d 96 40 be 3e 6f f3 dd 3b
       -0.03935874 0.03812978 0.3715865 0.0067734043
000050 36 e7 f7 bd 87 0b 9c 3d d1 e1 b1 bd 5f c6 64 be
       -0.12104647 0.07619386 -0.08685649 -0.22341298
000060 ce 88 b7 3d 61 0e 10 3e 03 92 41 be 4e 7a 3f 3e
       0.0896164 0.14067985 -0.18903355 0.18699
000070 90 1c 60 3c 9e 5e d9 3c e2 f3 82 bd 9f b0 03 3e
       0.013678685 0.026534375 -0.06394173 0.12860344
000080 ac c3 4c 3a 97 de 27 3e 9e 54 e2 3c a1 94 ca bc
       0.000781114 0.16393505 0.02762824 -0.024729075
000090 50 b6 48 3c b6 6c b5 bd d6 aa 99 bd b9 a9 92 bb
       0.012250498 -0.088586256 -0.075032875 -0.004475799
0000a0 fe 5c f9 bd c3 41 99 bd 69 9c f7 3c 44 28 2f 3e
       -0.1217594 -0.07483246 0.03022595 0.17105204
0000b0 2c 1f 01 be 7f 34 05 3e 28 4c 1f bd e5 06 0b be
       -0.12609547 0.13008307 -0.038890988 -0.13576849
0000c0 85 65 02 3e 2c b2 5c 3c a6 07 32 3c c9 5b 40 bd
       0.12734039 0.013470214 0.010866081 -0.046962533
0000d0 83 f4 4b 3e 97 53 b3 3c c5 c5 cb bc 5e ce bd bd
       0.19917493 0.021890445 -0.024874577 -0.09267877
0000e0 3f dd 4f be 1b 4d 39 3b 64 e9 24 bd d7 e6 13 be
       -0.20299242 0.0028274718 -0.04026164 -0.14443527
0000f0 f1 3c 57 bd 76 d8 9f bc c5 ce 86 bd 13 d0 d4 bd
       -0.052548353 -0.019512396 -0.06582407 -0.103912495
000100 4b b8 82 3d ef 0e 04 3e ce 07 2a 3e f8 6f 66 be
       0.06382807 0.12896322 0.1660454 -0.2250365
000110 76 b0 90 3d 35 93 62 bd b7 87 85 bd 24 05 df 3d
       0.07064907 -0.05531617 -0.06520026 0.10889652
000120 b0 58 5e be 95 4e 08 3e 9a 01 46 be 18 3a f4 bd
       -0.21713519 0.13311227 -0.19336548 -0.11925143
000130 aa fa 14 be 67 8c 32 bd fa 08 2e 3e 72 a3 49 bd
       -0.14548746 -0.04359093 0.16995612 -0.04922814
000140 e9 4c 8d 3d ea d1 2c 3d 6b 13 dd bd 93 c4 18 bc
       0.06899435 0.042192377 -0.10794719 -0.009324211
000150 21 24 3a 3c 7c bc 16 3e 6e 44 a2 3d 71 fb d7 bd
       0.011361153 0.14720339 0.07923208 -0.105460055
000160 16 89 05 bd ef f8 1a bd a3 69 fe bd 58 e3 b9 3d
       -0.03260144 -0.037835058 -0.12422492 0.090765655
000170 93 a8 5b 3d 46 80 fa bd c7 ae e5 bd 4f ca e5 bd
       0.05362756 -0.122314975 -0.11214977 -0.11220228
000180 86 f8 11 3e 79 d5 0c 3e 71 b3 ce 3c 30 51 05 be
       0.1425496 0.13753308 0.025232049 -0.13019252
000190 be 2c 96 bd 6f 60 ae 3d f7 3a a4 bd df 14 9e bd
       -0.07332753 0.08514487 -0.08019059 -0.077188246
0001a0 b4 60 80 bd c2 37 97 3e f2 5f 06 be 3c 74 50 bc
       -0.06268445 0.29534727 -0.13122538 -0.012723025
0001b0 97 47 2a 3d 53 b9 ac 3d ad 11 ec bd c6 37 7b 3d
       0.04157218 0.08433785 -0.11526809 0.061332487
0001c0 0c 4d 8b 3d da 05 12 be 96 49 08 bd 02 80 ab bc
       0.06801805 -0.14260045 -0.033273302 -0.020935062
0001d0 08 d8 e8 3d ca ca 65 3c ee 5e d5 3d 00 92 7e 3d
       0.1136933 0.014025399 0.10418497 0.062150955
0001e0 99 c4 01 3e d7 5a a6 3d a4 70 16 3d 83 7c 8d bc
       0.12672652 0.08122795 0.036728516 -0.017271286
0001f0 26 d0 4a 3d e1 f7 37 bd e5 8d a7 3d 91 7e 8b bd
       0.049514912 -0.04491413 0.08181361 -0.0681125
000200 b3 4d a1 bd 52 5b c8 3d ec d2 f3 3d 6b bb 14 3c
       -0.07876148 0.09783043 0.119054645 0.009077887
000210 82 5a de bd a6 5f 4a 3d c5 67 7f be 7e db 23 3e
       -0.10857107 0.049407624 -0.24941929 0.16001698
000220 81 07 18 3b a5 a1 f0 bd 95 52 da bd 8e f2 3c bd
       0.0023197832 -0.11749581 -0.106602825 -0.046129756
000230 ba 46 7b bd 3e 89 96 bd a0 25 68 3d 85 ee 71 3c
       -0.061346747 -0.073503956 0.056676507 0.01476634
000240 2e 04 5a be f6 2b 35 be cc 2a 09 bd bf 3c f4 3d
       -0.21290657 -0.17692551 -0.03348808 0.11925649
000250 6d 2d 2b 3d 5c ce 1d bc b2 a2 9c 3e 41 32 7e be
       0.04179137 -0.009631719 0.30592877 -0.24823858
000260 f9 5a f7 3d 27 3b 48 bd d4 4f 42 be 6e 1d 7c 3c
       0.120778985 -0.048884537 -0.18975765 0.015387876
000270 cd f1 13 be 71 49 bf 3d 3f d3 86 bd cc 92 07 be
       -0.14447708 0.0934018 -0.06583261 -0.13239592
000280 b1 53 15 be 1a a9 31 3b dd c2 56 3e d5 2d 43 bd
       -0.14582707 0.002710885 0.20972772 -0.04765113
000290 de bd 48 3c b3 87 58 bd 3f f7 ab 3d 72 f8 d4 3d
       0.012252299 -0.052863788 0.08396768 0.1039895
0002a0 c3 2f 8f 3c 18 5e 0e be 94 c2 cc bd a5 b8 0d be
       0.01747883 -0.13903081 -0.0999805 -0.13839968
0002b0 19 55 91 bd 29 1e 02 3d 3e 4b 8f bd b3 c7 a1 bd
       -0.07096309 0.031767044 -0.06996773 -0.07899418
0002c0 b9 59 74 3e 44 a4 f4 3c ac 3b 7a 3e 5b f8 db bd
       0.23862351 0.029863484 0.24436826 -0.107407294
0002d0 a2 19 54 3d 0f 10 dc 3d 1e f8 65 bc ed da 3c be
       0.051782258 0.107452504 -0.0140362065 -0.18442889
0002e0 7e 74 8f 3d 45 5e 93 3e 17 a4 93 bd cf 23 31 3d
       0.07004641 0.2878286 -0.07209032 0.04324704
0002f0 50 6c aa bd ca 84 52 be 8f 61 a4 bb b9 2b 94 3d
       -0.0832144 -0.20558468 -0.0050165127 0.07234902
000300 3e 58 15 be 01 7e 51 3c c4 61 8b be e3 30 13 3d
       -0.14584443 0.012786389 -0.27223027 0.035935294
000310 a3 52 ef bd 32 ac 03 be 1f 87 fc bd b5 45 b2 bd
       -0.116856836 -0.12858656 -0.1233046 -0.08704702
000320 cd 7f cc bd d7 50 13 be 08 da 7e 3e 90 e6 d0 bc
       -0.099853136 -0.14386307 0.2488786 -0.025500566
000330 97 e3 15 bd c5 e4 01 3e 19 49 c0 3d de 9e 47 be
       -0.036594 0.12684925 0.09388942 -0.19494197
000340 79 bb 9a 3d f1 68 db bb 9f db 96 3d 02 40 1e bd
       0.07555289 -0.0066958596 0.07366108 -0.03863526
000350 dc 47 41 be 7e f7 53 3e 88 89 04 be d2 7b 83 bd
       -0.18875068 0.2069988 -0.12943089 -0.06420101
000360 bd 38 92 bd b7 82 cc bd ca 31 10 be d1 89 35 bc
       -0.07139728 -0.099858694 -0.14081493 -0.011080221
000370 d5 3b 31 bd 75 24 40 be 9d 5b 5f 3a dc 5c 31 3e
       -0.04326995 -0.18763907 0.00085204263 0.1732058
000380 d1 84 6d bd 85 0d 28 be 80 98 c3 bd f2 c3 1f 3e
       -0.05798799 -0.16411407 -0.095505714 0.15602091
000390 e1 22 19 3e 14 bf e5 bd 2a b9 f0 ba ca d1 df 3d
       0.14954711 -0.11218086 -0.001836573 0.10928686
0003a0 4d e3 c2 3d eb b0 55 be f4 71 06 3e 2a 5d cc 3a
       0.095160104 -0.2086827 0.13129407 0.001559173
0003b0 20 53 98 bc 83 39 d2 3d 3a c3 69 3e b3 cf 30 3e
       -0.018594325 0.10264876 0.2282838 0.17266731
0003c0 f6 c8 17 3e de 11 ec bd 5b 9f f8 3c 33 a2 b3 3d
       0.14822754 -0.115268454 0.030349424 0.087711714
0003d0 2a fa 8c 3d 62 0a e3 bd d9 aa 10 3e 2d 7d 7d bd
       0.068836525 -0.11085965 0.14127673 -0.061886955
0003e0 c7 1e 53 be 37 38 3c be 8d ba f0 bd fd 62 1c bb
       -0.2061721 -0.1838082 -0.11754332 -0.0023862713
0003f0 44 70 58 3b 7c c1 a2 3d 4d cb 91 bd c5 89 53 3d
       0.00330259 0.079470605 -0.07118855 0.05164506

a2c_network.actor_mlp.2.weight f4 [128, 256]
000000 12 1c 79 bb 32 f7 ca bc 5f 33 b5 bd f7 db 1c 3d
       -0.0038011116 -0.024776075 -0.08847689 0.038295712
000010 7f 15 14 3c 64 d7 a3 3d b6 1e c7 bd ec 66 26 be
       0.009038328 0.08000067 -0.097226545 -0.16250199
000020 df 36 b6 3d f1 66 e4 bd a1 d5 b5 bd 5c f8 4f 3d
       0.088971846 -0.11152447 -0.08878637 0.050773963
000030 62 b9 06 bd 99 e7 1c 3c df de b0 3c 35 46 d8 bc
       -0.03289164 0.009576702 0.021590648 -0.026400665
000040 c9 d2 e5 3d f4 9d ff 3c 7b a4 d7 3c 8e 29 27 be
       0.11221845 0.031203248 0.026323548 -0.16324446
000050 c4 b0 71 3d 7e d1 26 be 06 f2 59 bd 58 f9 b2 3d
       0.059006467 -0.16290852 -0.053209327 0.08738965
000060 38 95 69 3c 62 57 f7 bd b1 4e f0 3d a9 91 8a 3d
       0.014256768 -0.12077214 0.11733759 0.06766064
000070 c4 45 44 be 92 10 4a 3d d6 97 04 bd dd 7e 4d 3b
       -0.19167238 0.04933221 -0.032371365 0.0031356134
000080 2c 00 43 ba 18 3e c8 bd ae 71 ad 3d cc 2c 04 3d
       -0.0007438685 -0.097774684 0.08468948 0.032269284
000090 4e 7c 00 3e 6a 85 14 be 30 8f dc 3b 04 0f 72 bd
       0.12547418 -0.14504018 0.0067309365 -0.05909635
0000a0 7a 10 37 3e b7 6b 57 bd 45 78 80 3d a7 fb f2 3d
       0.17877379 -0.05259296 0.062729396 0.11864405
0000b0 44 0b b1 bd d5 a9 62 bd aa 88 ab 3d 23 51 61 bc
       -0.08644727 -0.055337746 0.08375676 -0.013752255
0000c0 89 79 91 3c 8b 88 06 3d 94 3b 24 3c 68 5c 8c bd
       0.017758148 0.03284506 0.01002397 -0.068535626
0000d0 1a 82 65 bd d9 3c 2f be 8e ec c0 3d 6d f7 30 bc
       -0.056032278 -0.17113055 0.09420119 -0.010801178
0000e0 27 c1 a4 3d 3c 8a 12 bd 7f ce 3b bd 86 09 a0 bd
       0.080446534 -0.03577636 -0.045851227 -0.078143165
0000f0 33 b2 59 3d b3 8e f1 3c d0 be 1b be 6e ad b4 bd
       0.05314846 0.02948699 -0.15209508 -0.088221416
000100 4d 06 50 3d f5 f0 4f 3d 79 e1 62 3c 2b 24 ad bd
       0.05078726 0.050766904 0.013847702 -0.08454164
000110 8d b7 d4 3c 83 c2 5d 3d 0c 44 68 bc ec 8e b2 bc
       0.02596643 0.05414058 -0.01417638 -0.021796666
000120 82 e0 42 3c 01 0b 84 bd 94 bf b2 3c 9e 15 1d bd
       0.011894347 -0.06447411 0.021819867 -0.038350694
000130 89 b9 37 bd 28 5a 8c 3d 2d 38 a7 bb dd 3e 59 bd
       -0.044854674 0.068531334 -0.005103132 -0.053038467
000140 94 95 77 3d 84 2d 38 3d 14 77 18 3c e6 00 b6 bd
       0.060445383 0.044965282 0.009305734 -0.0888689
000150 2d f6 2c 3e fc fd 09 be 29 24 68 3c 8a 60 55 be
       0.16890784 -0.13475794 0.0141687775 -0.20837608
000160 07 9b f6 3d f7 ba ab bc 45 c5 7a 3d 25 a5 a6 bd
       0.12041288 -0.020963175 0.061223287 -0.081369676
000170 b1 3e 46 bd bc 41 a1 3d ce 29 a7 bd 4f 06 27 3a
       -0.04839963 0.07873866 -0.081622705 0.00063714845
000180 cc a2 d0 3d ab 0b 43 3e ba 05 b6 bd 6b a7 79 bd
       0.10187301 0.1904742 -0.08887811 -0.060950678
000190 65 7d 6f 3d 9f db a1 bd 55 49 1f bb c7 6c 4e 3c
       0.058469195 -0.079032175 -0.0024305184 0.012599177
0001a0 9f 62 70 3d 14 2b ea bc 1d 90 b1 bd 0c e1 31 3d
       0.058687802 -0.028584994 -0.086700656 0.043427512
0001b0 cf e6 79 bc bf db a1 bd fc 54 b0 bc 4d 5b be bd
       -0.015252783 -0.07903241 -0.021524899 -0.09294758
0001c0 c4 0a 9d 3b 00 35 6f bd 55 98 6c bd 06 47 58 3d
       0.004792543 -0.058400154 -0.057762463 0.05280211
0001d0 5f d5 7c 3c a9 af 8e bb 70 5c d7 bd 6c a3 b8 bb
       0.015431731 -0.0043544364 -0.10515678 -0.005634716
0001e0 6b 8d 74 3a a5 2a a3 3c d3 cf 50 3d 73 f3 6d bd
       0.0009328934 0.019917795 0.050979447 -0.0580935
0001f0 8c 32 3c bd 05 11 1b bd 47 6a 7b 3a 2b 8e 58 bc
       -0.045946643 -0.037858028 0.00095907267 -0.013217489
000200 6b 84 91 3d c1 94 9d bc 0c ea 9c be 35 f8 bb bd
       0.07105335 -0.01923597 -0.30647314 -0.09178201
000210 96 9a 8b bc c9 08 83 3d 0f 96 58 3d 35 85 23 bd
       -0.017041486 0.0639816 0.052877482 -0.039921958
000220 d8 d3 08 be 3f 39 92 bd ec 4e cb 3d d4 eb 07 3b
       -0.13362062 -0.07139825 0.099271625 0.002073993
000230 dd da 95 3d 0e db 81 bc cb 5f ec bd b7 fc b8 3d
       0.073171355 -0.015851524 -0.115417086 0.090325765
000240 48 35 96 3d 98 e6 04 3e 20 0a 39 3e 2e ff 1c bd
       0.07334381 0.1297859 0.18070269 -0.038329296
000250 42 46 f9 3c 10 9f 54 3d dc 5c 00 3d bd 3b 5c 3b
       0.03042901 0.051909506 0.031338558 0.0033604943
000260 29 b0 f5 bd 68 61 05 3e e7 e1 61 bd 6c fc 89 bd
       -0.119964905 0.13025439 -0.055147078 -0.06737599
000270 1b ee e2 3d 63 3f 82 3c bf ac 07 bc 05 2c 51 bd
       0.11080571 0.015899366 -0.008280932 -0.05106737
000280 3c a0 2c 3d 07 86 cd bd c1 44 f0 3c 72 3e 01 bc
       0.042145 -0.10035329 0.02932966 -0.007888423
000290 9e 02 32 3d 3e e9 d7 3d 74 b9 b3 bb ad 48 07 3c
       0.043459527 0.10542534 -0.005484754 0.008257073
0002a0 86 36 77 bd 46 40 c4 bc dc 6a f8 ba 0d 73 5c bd
       -0.060354732 -0.02395643 -0.0018952745 -0.05382066
0002b0 f7 31 87 3c 39 52 f9 bd a0 45 4b bd 89 db d1 3d
       0.016503317 -0.12173886 -0.049626946 0.10246951
0002c0 e7 ab 98 3d e3 cd 9b bd f8 b4 97 bd 72 44 01 3e
       0.07454663 -0.07607629 -0.07407564 0.12623766
0002d0 4a a0 9c 3b c0 1b 80 bd 9d 12 75 bc d9 d1 e6 bd
       0.00477985 -0.06255293 -0.014958051 -0.11270494
0002e0 e6 c5 30 bd 16 8a 98 3d f2 8f 89 bd e9 fe 00 3d
       -0.04315748 0.07448213 -0.067169085 0.0314931
0002f0 cf 9e 8f 3d 51 11 aa 3d ed 2b b3 bd 68 29 65 3d
       0.07012712 0.08304084 -0.087486126 0.05594769
000300 c8 d7 be 3d 8f f1 27 bc cb cd 8b 3c 6a a3 a8 bc
       0.09318501 -0.010250463 0.017065903 -0.020585734
000310 40 bf 39 3d c0 5c 1e 3e ec f0 04 bc 2b 4b 95 bd
       0.045348406 0.15465069 -0.008114081 -0.07289728
000320 aa 21 b2 bc b5 85 a7 bc 7d f7 57 bd 94 1e 05 3e
       -0.021744568 -0.020449499 -0.052726258 0.12999946
000330 f8 59 1d 3c 88 4d 58 bc 7f ee 70 be 3f 3f 2d be
       0.00960397 -0.013202079 -0.23528479 -0.16918658
000340 10 78 16 3e 99 38 38 3c 08 e6 75 3d 40 90 06 3e
       0.14694238 0.011243963 0.060033828 0.13140965
000350 fb 12 48 be eb 7e ed bd d7 8f 0d bd 81 82 85 3c
       -0.1953849 -0.11596473 -0.034561004 0.01629758
000360 e6 ee 5e 3d 4b 39 eb bc 2f 9b b6 3a 60 e4 18 bc
       0.05442705 -0.028713843 0.0013931746 -0.009331793
000370 17 15 26 3d f7 df 77 bc 1b 8f fe 3d 7d 02 8c 3c
       0.040547457 -0.015129081 0.12429639 0.01709103
000380 38 12 dd bc 59 67 b3 3c 53 9e b9 3d ab f8 9a 3d
       -0.026986226 0.021899866 0.09063401 0.07566961
000390 85 ed ad bd 84 64 91 bd 99 17 9f 3c 1d 49 b5 bd
       -0.08492569 -0.0709925 0.019420432 -0.08851836
0003a0 8a 12 fb 3d 84 43 25 3c d1 74 32 3d 16 a1 4d bd
       0.122593954 0.010086898 0.043568436 -0.05020245
0003b0 77 b0 b4 3d 24 bb 5a 3d 6a c4 0d 3e e2 a3 e6 bb
       0.088227205 0.053401127 0.13844457 -0.0070385793
0003c0 4f 95 b3 3c e1 7f 0e 3d 05 9f d8 3d b1 7c a4 bd
       0.021921782 0.034789924 0.105772056 -0.080315955
0003d0 e4 48 4d 3a bf 26 87 3c be cd cf 3d 5f 3b ce 3b
       0.0007830991 0.016497968 0.10146664 0.0062936987
0003e0 d8 00 95 bd 3e 8a ce 3b 66 12 b6 bd 03 3f c3 3c
       -0.072755516 0.006303101 -0.08890228 0.023833757
0003f0 c6 65 01 be 99 38 9b 3d 0c 37 90 3c 15 75 44 bc
       -0.1263648 0.075791545 0.017604373 -0.011990805

a2c_network.actor_mlp.2.bias f4 [128]
000000 11 6f 34 bd b8 1c c9 bd 3d 46 a1 3c 44 4f 1b 3d
       -0.044051234 -0.09819931 0.019686813 0.03791739
000010 c0 9f 6f 3c 30 87 f6 3c 53 50 26 be 7d 6f 8f bd
       0.01462549 0.03009376 -0.16241579 -0.070036866
000020 fa ed 3a 3d 0b ad 00 3d d0 55 9a bd 9f 73 9e bd
       0.04563711 0.031415027 -0.07535899 -0.07736897
000030 de 56 5a 3d c3 84 aa 3d c7 50 88 3d 39 b0 8a 3d
       0.0533055 0.083261035 0.06656032 0.06771893
000040 3d 0f b5 bd e8 87 43 bb 1e 36 b0 be 5e 83 2e bd
       -0.08840797 -0.0029835645 -0.34416288 -0.04260575
000050 5d b5 68 3b 85 71 b2 b9 55 f0 f2 ba a6 89 a6 3c
       0.0035508492 -0.00034035384 -0.0018534759 0.020329308
000060 36 e9 13 bd fe 7a c2 bc ff 9e d5 bd 25 43 bb bd
       -0.03611108 -0.023740288 -0.10430717 -0.09143666
000070 a4 77 b2 3d e2 96 80 3c bd 51 e3 bc 0f 0c b8 bd
       0.08714226 0.015696947 -0.027748937 -0.08986675
000080 e2 09 9e bc 0f 38 1c be 9f 23 83 bd 68 87 9e bd
       -0.019291822 -0.1525576 -0.064032786 -0.077406704
000090 df cd 8b 3d c8 86 15 be ad c9 49 bd 44 ef 99 bd
       0.06826376 -0.14602196 -0.0492646 -0.075163394
0000a0 99 e1 aa 3a 90 77 91 3d af 05 05 3c c6 f4 9d 3c
       0.0013037204 0.07102883 0.008119031 0.019281756
0000b0 5d d0 e5 bd 87 b1 e0 3c b2 17 ba bb c0 16 49 3d
       -0.11221383 0.027428402 -0.005679094 0.04909396
0000c0 e0 b5 bc bd d1 5b 10 bd 31 0d 11 3d 67 a4 0a be
       -0.092143774 -0.035243813 0.03541297 -0.13539277
0000d0 46 26 81 bd 31 f4 87 bd 84 7e a2 bb 00 93 e4 3c
       -0.06306128 -0.06638373 -0.0049589295 0.027902126
0000e0 83 ca 94 bd d4 b0 04 be ff 89 05 be 4f 31 cf bd
       -0.072651885 -0.1295808 -0.13040923 -0.10116827
0000f0 ff 8b 6d 3d 34 6a 55 bd 57 44 9d 39 7d fc 16 be
       0.05799484 -0.052103236 0.0002999629 -0.14744754
000100 5c 94 6a bd 27 fd c0 bc ac db ad bd 29 51 29 bd
       -0.057270393 -0.023558212 -0.08489165 -0.041337166
000110 8e 59 b8 3b b4 d1 09 3d 05 09 df bb e4 16 a7 3d
       0.00562591 0.033647254 -0.006806495 0.08158663
000120 fa f9 83 bd c8 8d d8 3c a2 b9 39 3d e8 4c b7 bd
       -0.064441636 0.026434794 0.04534305 -0.089502156
000130 96 45 1d bd 67 ed 17 3d e3 4c a8 bd 8a 5c 1d be
       -0.03839644 0.03709164 -0.0821779 -0.15367332
000140 2a 0e 0a bc af 16 59 bd 66 53 d6 3c ab 46 2e bd
       -0.008426229 -0.05300015 0.026162814 -0.042547863
000150 5e bd 8d 3d 60 3c af 3b 06 f6 7d be 2c c4 1a bd
       0.069208845 0.0053477734 -0.24800882 -0.03778474
000160 aa d1 37 bc ac 91 d5 bd fc 87 1c bd 8d f9 72 3d
       -0.011219421 -0.10428175 -0.038215622 0.05932002
000170 ad 2e 53 bd 63 9e 0c bc e8 ed 61 bd 9d be 2a 3d
       -0.051558185 -0.008582684 -0.055158526 0.04168569
000180 b6 83 26 3c 16 1d b3 bb 45 37 66 3d 8d e2 c8 bd
       0.010163238 -0.005466114 0.056205053 -0.09808836
000190 5d f8 44 3d f6 1f 2d 3d f4 63 82 bd d3 a5 59 3a
       0.04808842 0.04226681 -0.06366721 0.0008302603
0001a0 c0 4d 99 bd b6 3b 43 bd 06 77 42 3d f8 5b 82 3d
       -0.07485533 -0.047664367 0.04747679 0.06365198
0001b0 ea 37 d4 3c 19 de 6d bd cc 71 94 bd af 8e 43 bd
       0.025905568 -0.058073137 -0.072482675 -0.047743496
0001c0 d3 d8 3d 3d ae 33 79 bb 37 fb 88 bc ff f4 e0 bc
       0.046349358 -0.0038025188 -0.016721351 -0.027460573
0001d0 56 23 98 3a 55 70 52 3d 69 3a 6e 3d f1 b9 38 bd
       0.0011607211 0.05137666 0.058161173 -0.045099203
0001e0 d6 ff 10 bd c3 f1 10 be 9d be 60 3c ad f6 dc bd
       -0.035400234 -0.14154725 0.013717321 -0.10789237
0001f0 4a 1f 05 be 32 da 2f bd 40 ea d9 bb 44 30 c3 bd
       -0.13000217 -0.042932697 -0.006650239 -0.0953069

a2c_network.actor_mlp.4.weight f4 [64, 128]
000000 99 7a 4b bc c5 38 fe 3d 7e cc 07 3d 01 03 ed 3d
       -0.012419366 0.12413172 0.033154003 0.115728386
000010 28 76 a7 3b 29 06 7c 3d 5b 0f 0d be 4e 8a df bd
       0.005110521 0.061529312 -0.13775389 -0.109150514
000020 5c 03 90 bd 7b 68 0d 3d 17 8e 0d bd bf 6e 9c bd
       -0.07031891 0.03452347 -0.034559336 -0.07638311
000030 9f cc 9e 3d d7 9c 28 3d e5 ee ab 3c f4 db e5 bc
       0.07753872 0.0411652 0.020987937 -0.028058983
000040 e1 77 25 bd 3a f2 f9 bc c1 2b 9c 3d 5f 3e 81 ba
       -0.04039753 -0.03051101 0.07625533 -0.0009860507
000050 8a ab 97 bc d1 c5 97 bd 8e 75 8e 3d 83 1f 33 bd
       -0.018514413 -0.07410777 0.069560155 -0.043731224
000060 54 db f6 bd c5 e3 30 3d 6a 20 86 3c 36 36 26 bd
       -0.12053552 0.043185968 0.016372878 -0.040579043
000070 fe ab 88 3c 1b 70 23 bc 85 89 1e 3d 1a e8 a1 bb
       0.016683575 -0.0099754585 0.038705368 -0.0049409987
000080 1c 53 02 3e c7 ef aa 3c e4 7b 81 bd 71 49 27 bd
       0.12727016 0.020866288 -0.063224584 -0.040841524
000090 a2 11 99 3d ee 77 82 3d 03 50 b9 bd 3b bf da 3c
       0.07474066 0.06370531 -0.09048464 0.026702514
0000a0 2b be 22 bc d6 b0 4b 3d d0 19 92 3d af ac 7d 3d
       -0.009933035 0.04972919 0.071338296 0.061932262
0000b0 e6 60 9d 3c b0 37 1f 3c 60 0b 9c 3d e5 10 09 bd
       0.019211244 0.009717867 0.07619357 -0.033463378
0000c0 44 69 63 3b 40 28 a1 3b 36 8f ff 3d 1d 91 02 bc
       0.0034700194 0.0049181283 0.12478487 -0.007969168
0000d0 11 6d 86 bd 3d 38 2b 3c c5 54 69 3d c6 1d 49 bd
       -0.065637715 0.01045042 0.05696561 -0.04910066
0000e0 6c f5 c9 3b 2c 68 93 3d 86 f4 18 be 32 bb 81 bd
       0.00616329 0.071976036 -0.14937028 -0.06334533
0000f0 37 2a 30 3c 00 79 d6 bd 50 65 51 bd 7e 70 39 bc
       0.010752252 -0.10472298 -0.05112201 -0.011318324
000100 ed b3 9a 3d af 23 41 3d c6 87 39 3e 3e 36 9c 3d
       0.07553849 0.04715317 0.181182 0.076275334
000110 7a 39 da bd 35 7f 3b 3d f6 74 b9 bd a4 88 b3 bd
       -0.10655494 0.04577561 -0.09055512 -0.087662965
000120 9e 50 f1 3c e8 5a 86 3d fa 42 9b 3d 13 85 ff bd
       0.029457387 0.06560308 0.07581134 -0.12476554
000130 ea 3f 2b bd ae e6 9b 3d fc 6e f7 bd 76 d5 95 bd
       -0.041809 0.07612358 -0.120817155 -0.07316105
000140 b4 f6 9e bd de 79 8a ba d4 16 d9 bc 2d ba ec 3c
       -0.07761899 -0.0010564884 -0.026500143 0.02889737
000150 4c 86 14 be bc f2 da bd 41 d6 ed bd de 74 c2 bd
       -0.14504355 -0.10690829 -0.11613131 -0.09494947
000160 b8 eb 83 3d d5 4d b6 3d b8 c9 73 3b 27 b9 05 3d
       0.06441444 0.08901564 0.0037199091 0.03264728
000170 cd 22 14 3d c6 f0 01 3e 82 ed 1e 3d 0e 87 3e bd
       0.036166 0.12689504 0.038800724 -0.046515517
000180 71 23 4c bd 15 88 be bd 70 4f 0a 3d 55 6e 25 3d
       -0.049838487 -0.09303299 0.033767164 0.040388424
000190 ed 67 44 3d 0a 81 27 3b 1e 3d 9d 3c 1e 6a 63 3d
       0.047950674 0.002555909 0.019194182 0.055521123
0001a0 d1 25 9d 3d 54 02 03 bd 84 fd c2 bc 66 14 1f 3d
       0.076732285 -0.031984642 -0.023802526 0.038837813
0001b0 6a 82 ba 3d 58 db 22 bd d8 1a 82 3d b8 90 29 bd
       0.09106906 -0.039759964 0.06352776 -0.04139778
0001c0 4d d3 0c 3e e1 23 9f 3d 11 23 5b bd f8 eb ee bd
       0.1375248 0.07770515 -0.05350024 -0.11666101
0001d0 14 77 6b bd 0e 2a 3b 3d 99 85 a0 bd 7a e6 53 bc
       -0.05748661 0.045694403 -0.07837982 -0.012933368
0001e0 03 f8 0d 3c ee d1 bd bd 35 86 d7 3d ea 6c 2c 3d
       0.008665088 -0.092685565 0.10523645 0.042096056
0001f0 3d 48 96 bd 6f 6c 14 bc 56 d2 2d bd 23 79 ce 3c
       -0.07337997 -0.009059056 -0.04243692 0.025204247
000200 fe 0e a1 bd 94 27 26 bd e0 97 c4 bc 36 45 25 be
       -0.07864188 -0.04056509 -0.0239982 -0.16139683
000210 6c 17 7b bd cf a9 52 3d c0 5c bd bd 17 70 a3 bd
       -0.061301634 0.051431473 -0.09246206 -0.07980364
000220 74 51 0b bd a9 ba cf bd 4e 3a bc 3d e1 ee 75 3d
       -0.034013227 -0.101430245 0.09190808 0.060042266
000230 fd 86 f4 3d 0c ab e1 3d 46 0a 10 3d 29 7f b3 3d
       0.119398095 0.11018953 0.035166048 0.08764488
000240 ff c6 e2 bd ba 34 5e bd ad 71 e4 3d a5 da 83 3c
       -0.11073112 -0.054249503 0.111544944 0.016095469
000250 c4 dd 25 3d 39 d4 a6 3d f7 ae e8 bc 81 a0 2b bd
       0.040494695 0.08145947 -0.028403742 -0.041901115
000260 5a 26 75 bd b4 8d 01 be 25 62 dc bb 2e b8 23 be
       -0.059851028 -0.12651712 -0.006725567 -0.15988228
000270 11 9b 30 3d f3 b5 34 bd f6 af 27 bd 2d ef 84 3e
       0.043116633 -0.044118833 -0.040939294 0.25963727
000280 d5 87 80 bd 07 72 2f be d9 9c 9e 3d e8 68 72 bd
       -0.06275908 -0.17133342 0.0774476 -0.059182078
000290 02 6e 8c bc 77 54 b4 3c a8 e4 49 bc f3 fb 8c bd
       -0.0171423 0.022012932 -0.012322582 -0.06883993
0002a0 5d 13 b6 bd 01 ad d3 3c 59 3d be bd 3d 01 89 bd
       -0.08890412 0.02583933 -0.09289045 -0.06689689
0002b0 ab 06 39 bd 53 2d 22 bd 57 b1 a9 bd a6 60 15 3a
       -0.045172375 -0.039594006 -0.08285778 0.00056983007
0002c0 85 e3 30 bd 49 7b 44 bd 12 11 01 bd 7b e2 8c 3d
       -0.04318573 -0.047969136 -0.03151042 0.06879135
0002d0 e8 f2 8d bb cb 3b 4e 3e a1 22 1f 3c 4e 87 80 3c
       -0.004331935 0.20139997 0.009712846 0.015689518
0002e0 dc cc 03 be e9 ae 2b 3d 58 cb 3c bd fe 53 25 bd
       -0.12871116 0.041914854 -0.04609236 -0.040363304
0002f0 4d f8 b3 bb 27 e0 cb bd cf c7 a5 bd 94 da 0b 3e
       -0.0054922462 -0.09954863 -0.08094751 0.136576
000300 83 3c ce 3b 3f 04 00 be 03 35 7d bd 8c 98 0d 3c
       0.0062938347 -0.1250162 -0.061818134 0.008642327
000310 dc 25 0d 3e 63 88 03 3d 1b 18 1d be 39 a3 ca 3d
       0.13783973 0.03211249 -0.15341227 0.098944135
000320 56 ce 95 bd 34 d6 c4 3c e1 61 af bd ee f7 d8 bc
       -0.07314746 0.024027921 -0.08563591 -0.02648541
000330 42 91 bf 3b b3 f8 54 3d 08 20 b4 bd 0b e4 37 bd
       0.0058461735 0.05199499 -0.08795172 -0.044895213
000340 c9 dc 6a bd e6 5f 1d be fe 74 44 3b 64 b0 2f bc
       -0.057339463 -0.15368614 0.002997696 -0.010723207
000350 da db 71 bd be aa 9c bd 7a 43 f9 3c 5d 4d 97 bb
       -0.059047557 -0.07649754 0.030427683 -0.0046173767
000360 5d 88 07 bc 98 a9 ea bb 05 cb a4 bd db 1d ee bd
       -0.008272258 -0.0071613304 -0.080465354 -0.11626788
000370 62 b0 16 3e 95 9c c7 bd 40 92 44 3d bd 45 1b bc
       0.14715722 -0.097466625 0.047991037 -0.009477076
000380 34 a1 8e 3b df fa ee bd 45 b7 aa 3d 83 b7 fb bb
       0.004352713 -0.116689436 0.08335737 -0.0076817884
000390 b5 4c f8 bd 1a ca 31 bd cb 08 f3 bb 7a 6d 28 bd
       -0.12124006 -0.04340563 -0.0074168197 -0.04112003
0003a0 3a 68 b0 bd 3f e5 b9 bc e0 e3 13 3d 72 36 12 3d
       -0.0861363 -0.02269232 0.03610599 0.035696454
0003b0 3e d1 41 bd 65 c4 e4 bd dd 9c 9b bd 2f b3 cb 3c
       -0.04731869 -0.11170272 -0.07598279 0.024865715
0003c0 c0 30 86 3d 22 7c 40 bc ea fe cc bd cc 8d b0 bd
       0.06552267 -0.011748346 -0.100095585 -0.086207956
0003d0 a9 a4 90 3d 45 73 2f 3d 92 c4 14 3c 4d 8d 50 bc
       0.070626564 0.04283454 0.009080069 -0.012729001
0003e0 ab c8 66 bd 02 ca 03 be d4 b7 b5 3d f9 b6 a0 bd
       -0.056343716 -0.12870029 0.08872953 -0.07847399
0003f0 da 12 53 be 74 e7 50 be 35 03 29 be 9e e1 e3 bd
       -0.2061266 -0.20400792 -0.1650513 -0.111270174

a2c_network.actor_mlp.4.bias f4 [64]
000000 41 30 0e bd d8 de 88 3d 67 1c 07 3d 6c cc 03 3d
       -0.034713987 0.06683129 0.03298607 0.032177374
000010 40 c7 87 bd 24 9a 63 bd 4c 26 bd bd 1e 09 4e be
       -0.06629801 -0.05556692 -0.0923582 -0.20120665
000020 27 3f 82 3c 10 5d 96 3d 98 55 b7 bd 83 86 e1 bd
       0.015899254 0.07341969 -0.089518726 -0.11011984
000030 5b 24 9d 3d b7 cb 14 bc bb 4a 40 3d 30 ce d7 bd
       0.0767295 -0.0090817725 0.04694627 -0.10537374
000040 63 da 0b 3d 6e 22 42 3d 54 35 b1 bd 77 6f a5 3d
       0.034143817 0.047396116 -0.0865275 0.08077901
000050 8a 54 1d bd 4b 62 e8 3c a9 5d 03 3c 4d f6 00 3c
       -0.0384107 0.028367182 0.008017936 0.007871223
000060 b3 cb 34 bd 0b 9b 10 bd 32 51 fd bd ea 8b 1b bd
       -0.044139575 -0.03530411 -0.123690024 -0.03797523
000070 a8 0d 09 bc 2d ea e4 bd 56 7b 08 3d f4 da 70 3d
       -0.008365072 -0.11177478 0.033320747 0.05880256
000080 51 93 6f bd 7f e4 49 bd f4 aa 1b bd 8f 0b be bc
       -0.0584901 -0.049290176 -0.03800483 -0.023198871
000090 cb 87 28 bd 0d 98 66 bd ee 70 b7 3d fa 2c 5c 3c
       -0.041145127 -0.05629735 0.089570865 0.013438458
0000a0 f7 90 8f 3c 28 ab f8 3c 01 94 80 3c 46 57 f2 b9
       0.01752518 0.030355051 0.015695574 -0.0004622286
0000b0 39 e9 a0 bd d8 7c 39 be 48 75 31 3d c1 70 66 3d
       -0.07856984 -0.1811403 0.04332474 0.056259874
0000c0 51 90 24 bc 09 55 87 3d 7a dd 0e be 7d b3 fa 3d
       -0.010044173 0.06608016 -0.13951674 0.12241266
0000d0 9b 92 2a 3d 11 74 fc 3d a1 67 f3 bc 24 66 c5 3c
       0.04164372 0.123268254 -0.0297125 0.024096556
0000e0 68 27 16 bd e2 bb e7 bd 1b 07 d4 bd 56 e3 bd bd
       -0.036658674 -0.11315133 -0.10352918 -0.092718765
0000f0 f5 ea 38 bc 79 b9 cd bc 99 c8 6f 3d 4e c1 8a bc
       -0.011286487 -0.025112854 0.058540914 -0.016937878

a2c_network.mu.weight f4 [8, 64]
000000 86 cf 00 3e 69 92 b7 bd 97 5d 0c 3e f0 55 f4 bb
       0.12579164 -0.089634724 0.13707577 -0.0074565336
000010 39 fe ab bd 2d e1 62 bd 8a d7 85 bc e7 40 cc 3d
       -0.083980985 -0.055390526 -0.016338129 0.09973317
000020 ba 41 29 3d 97 ed 8d 3d 7e 45 4b 3d 12 13 eb 3d
       0.041322447 0.06930082 0.04962682 0.11478247
000030 9c 78 d2 bc b1 a6 93 bd 92 1a e1 3c 51 d3 d2 bd
       -0.025692277 -0.07209528 0.02747849 -0.10294212
000040 78 bd a2 bc 0b 9e 72 bc 09 b7 5c 3c b4 67 23 bd
       -0.019865736 -0.014808188 0.013471373 -0.03989382
000050 52 a3 8d bd 93 b4 93 3d 08 00 93 3d 1a 4d 18 be
       -0.069159165 0.07212176 0.0717774 -0.14873162
000060 e4 99 5e bd 0b 6c ff 3d c0 cb 02 be a9 a8 b0 bd
       -0.05434598 0.124717794 -0.12773037 -0.08625919
000070 5b db 78 3d 69 88 ee bb 11 1e 6b 3d 9b 69 01 3c
       0.06075607 -0.007279445 0.05740172 0.007898713
000080 6a 03 31 3d b5 e5 46 3d e2 59 9f bd 29 6e f2 3d
       0.043216147 0.04855891 -0.07780816 0.11837418
000090 f6 43 75 bd 77 4d 3a bd 13 4e 95 bd 07 7a 98 3d
       -0.059879266 -0.045484032 -0.07290282 0.0744515
0000a0 bc 08 26 be 22 b5 bb bd 96 61 95 bd a1 e7 f6 bd
       -0.1621427 -0.09165408 -0.07294004 -0.120558985
0000b0 88 f0 12 be a3 7b 46 bd 2f d0 11 be ca 71 aa 3c
       -0.14349568 -0.048457753 -0.14239572 0.020806212
0000c0 67 c7 3e be 80 21 a8 bd bc 33 70 3d f1 71 21 3d
       -0.18630753 -0.082095146 0.058643088 0.039415304
0000d0 2e e7 31 3d 0a f6 f7 bd 8c dc 2e 3d d5 fe 5b 3e
       0.04343336 -0.12107475 0.0426908 0.2148393
0000e0 aa df 90 3d 74 d7 c7 3b 3f af 9b bb 26 b0 a7 bd
       0.070739105 0.006098682 -0.0047511156 -0.081878945
0000f0 b2 70 da bc 41 49 a7 bd c5 55 5b bd 56 2a 3b 3e
       -0.026665065 -0.08168269 -0.053548593 0.18277869
000100 fe 92 84 bd 01 5c 62 bd ff e6 ad bd 70 02 65 3d
       -0.06473349 -0.055263523 -0.08491325 0.055910528
000110 f6 50 ca bc cd 4f 7a bd 9c 71 c7 3b 8e 4e 42 3d
       -0.024696808 -0.06111126 0.0060865413 0.047438197
000120 bd b3 a7 bd 71 bb f8 3a 40 a4 75 bc 09 0b 29 3d
       -0.08188579 0.001897676 -0.0149927735 0.04127029
000130 da b6 6a bd bb 4a ba 3d 99 a7 66 3d 21 64 ae bc
       -0.057303287 0.09096285 0.056312177 -0.02128798
000140 cf 9c 74 3c 8a a8 c4 3d 41 3f 5c bd d8 55 d7 3c
       0.014929964 0.09602459 -0.05377126 0.02628605
000150 6a 16 47 bd 02 02 ba ba c4 13 b1 3c aa 2e ce bc
       -0.04860536 -0.0014191272 0.02161587 -0.025168736
000160 d5 71 f0 3c 58 10 93 3c e9 d2 bc 3d 50 14 1e bd
       0.029351154 0.01795213 0.092199154 -0.03859359
000170 03 8b da bd 01 9a bd 3d 93 a6 11 be f7 43 75 3d
       -0.10671046 0.092578895 -0.142237 0.05987927
000180 6d 67 01 3d 61 f8 a1 3d d8 eb d4 bd b3 8e 9f bd
       0.031592775 0.07908703 -0.10396546 -0.077908896
000190 fa 42 5e bd b4 ad 71 3e 0a 3f c2 bd 37 36 07 bd
       -0.054263093 0.23601419 -0.0948468 -0.033010688
0001a0 f8 c1 b0 3b d2 f6 98 bd 34 7e b0 bc 89 90 14 bd
       0.0053942166 -0.07468952 -0.021544553 -0.036270652
0001b0 c6 06 19 3d e8 07 7f 3d f6 ae 36 bd a5 2d 2f bd
       0.037359975 0.0622634 -0.04460045 -0.04276814
0001c0 2c ea ce bd ea e8 31 bd 13 4e f9 3d e6 ab ad bd
       -0.101032585 -0.043435015 0.121730946 -0.08480053
0001d0 eb ad af 3d e7 04 cf bd c3 09 88 3b f8 c0 7d 3c
       0.08578094 -0.10108357 0.0041515543 0.015487902
0001e0 c4 b9 05 bd ee c5 13 3e 6f 53 44 3d 48 30 60 3d
       -0.032647863 0.14430973 0.04793113 0.054733545
0001f0 25 45 23 3d 7e b5 3d 3d 67 85 6f 3d f6 bd 6d bd
       0.039860863 0.046315663 0.05847683 -0.05804249
000200 01 62 6c 3d 40 b5 31 be 07 9e d2 3d c7 79 2c 3d
       0.05771065 -0.17354298 0.102840476 0.042108323
000210 c6 0e 3c ba c2 df 43 bd 8a a7 c7 3d 14 7c 60 3e
       -0.0007173832 -0.047820814 0.097487524 0.21922332
000220 bc 3b 50 bc a3 c1 f2 bb 6b a6 39 3e c8 71 cd 3c
       -0.012709554 -0.007408337 0.1812989 0.02507867
000230 90 8a bc 3c fe 90 eb bd 0e 17 77 3c 7b df 9d bd
       0.02301529 -0.115022644 0.01508118 -0.07708641
000240 8b c6 52 3d 15 0c a7 bd be e5 81 bc 93 24 0d 3d
       0.051458877 -0.08156601 -0.01585662 0.034458708
000250 a7 9a 16 3d 98 dd 09 bd 16 f0 83 3d 7c 24 77 3d
       0.03676858 -0.033658594 0.06442277 0.06033753
000260 3b c0 37 3e ec 94 22 be 57 96 06 be 5a d4 0a be
       0.17944424 -0.15877122 -0.13143288 -0.13557568
000270 f3 db 8f bd fc 34 65 3c 74 e9 b3 bb e0 22 b6 bd
       -0.07024374 0.013989683 -0.0054904763 -0.08893371
000280 e3 d3 a6 bd ab 2a 68 bd 84 60 c4 bd 56 da fa 3d
       -0.08145883 -0.056681316 -0.095887214 0.122486755
000290 a7 c1 d4 3d 8d 53 59 3c 96 39 15 3d 51 e9 21 3d
       0.10388499 0.013264549 0.03643187 0.03952915
0002a0 8d b7 93 3c 3c 13 c8 3d c7 ca cc bc 5b cb e4 3d
       0.01803186 0.09769294 -0.024999036 0.111715995
0002b0 d0 96 20 3c 3b 37 2b 3c b8 72 82 3d 30 5d 1a 3d
       0.0098015815 0.01045018 0.06369537 0.037686527
0002c0 d5 5d ea bc 21 4b c1 3c 05 29 35 be e2 a0 ba bd
       -0.028609196 0.023595395 -0.17691429 -0.09112717
0002d0 41 23 dd 3d 07 2e 1f bb 92 87 95 bd 55 95 2e bd
       0.1079774 -0.002428891 -0.073012486 -0.042622883
0002e0 ba 56 31 bd ba 84 c9 bd 41 27 4c 3d bb 82 cc 3d
       -0.0432956 -0.09839769 0.049842123 0.09985872
0002f0 7c f8 cb bd d3 42 6b bd 5f de 6e 3e e1 42 ad bd
       -0.09959504 -0.057436775 0.23327015 -0.08460022
000300 ca e6 04 3d 04 9b c4 bb de 16 73 bc e0 ae 97 bd
       0.03244666 -0.0059999246 -0.014836995 -0.07406402
000310 ab 2b 2f bd 40 73 35 bd ab b2 45 3d ff 98 05 be
       -0.042766254 -0.044299364 0.048266094 -0.13046645
000320 2e 60 f4 bd 79 e8 8e 3d ef 59 f7 3c 2c 2c 6c bd
       -0.11932407 0.069779344 0.03019425 -0.057659313
000330 69 68 39 3d c3 fb 85 bd 4d 8b 7e 3d f9 f0 1f 3b
       0.04526559 -0.0654216 0.062144566 0.0024405106
000340 99 56 66 3d fa 5c c3 bb ce d2 98 3c 3d 18 68 3d
       0.05623493 -0.0059620114 0.018655207 0.05666374
000350 a7 90 e2 3d b7 bb 13 be ee 6c 2e 3d 60 4e a9 3d
       0.110627465 -0.14427076 0.042584352 0.08266902
000360 eb a9 e5 bd 12 64 33 bd 69 34 98 3d 5e 0c c4 bd
       -0.1121405 -0.043796606 0.074318714 -0.09572671
000370 e6 13 e7 bb 98 15 92 3c 75 04 84 bd 45 af cd bd
       -0.0070519326 0.017832562 -0.064461626 -0.10043196
000380 e2 0f 50 3d 62 3d 6e 3d 6c 67 da 3d 58 6d f4 bb
       0.050796397 0.058164008 0.106642574 -0.007459324
000390 cd f6 2e be cf 7b 5a 3d fa 8b 6b 3d 87 aa 3d bd
       -0.17086335 0.05334073 0.05750654 -0.046305206
0003a0 3a ff 24 bc 62 96 24 3d 06 87 3d bd 16 ff 91 3d
       -0.010070616 0.04018248 -0.046271347 0.07128732
0003b0 b5 60 b9 bd be 9e 02 3e c9 7e e2 bd 1c 29 f5 bc
       -0.090516485 0.12755868 -0.110593386 -0.029926829
0003c0 65 e1 0a 3e 7a d1 c2 3d ca 59 5c 3d bf 66 02 3e
       0.13562544 0.09512611 0.053796567 0.12734507
0003d0 2f 2c 7d bd 69 c5 c6 bd 2d d6 73 3d 11 b7 02 3d
       -0.061809715 -0.09705622 0.059530426 0.031912867
0003e0 37 91 b4 bd f8 29 d7 3d a1 5d f8 bb 6d f7 3e 3e
       -0.0881676 0.10506052 -0.007579521 0.18649073
0003f0 af da c7 3b 09 55 13 3d 36 01 21 bc 63 46 a0 3d
       0.006099067 0.035969768 -0.009826949 0.07825925

a2c_network.mu.bias f4 [8]
000000 c1 e5 d5 3b 19 3f b6 bd 81 a3 df bd 1c fc 43 3d
       0.006527633 -0.08898754 -0.10919858 0.047847852
000010 65 ff 2d 3d d0 1a d2 3d d1 2f 85 bd 2f 61 26 bc
       0.04247989 0.1025902 -0.06503261 -0.010155006

a2c_network.value.weight f4 [1, 64]
000000 ba e7 34 3d 6a 7a 4a 3b 09 5f a4 3d 87 24 1e 3d
       0.044166304 0.0030895718 0.08025939 0.038609054
000010 8d b3 d9 bd 8c 99 a1 bd 66 a4 8e bc 83 22 2f bc
       -0.1062995 -0.07890615 -0.017412376 -0.010689381
000020 7b 15 95 bd 3d 47 b2 3c 9b 72 9f bc b4 cc 8e bd
       -0.07279488 0.021762485 -0.019463828 -0.06972638
000030 e6 da 52 3d 15 8d 75 3c be 6b 0a 3d 64 d4 d8 bc
       0.05147829 0.01498725 0.033794157 -0.026468463
000040 a4 06 29 bd 70 4e 4f 3d 32 31 2a be 51 78 3c b9
       -0.0412661 0.050611913 -0.16620329 -0.00017973899
000050 76 f2 72 3d 5b fe a6 bc 87 4d e6 3d e9 ff 81 bc
       0.05931326 -0.020384958 0.11245256 -0.015869098
000060 25 60 b2 3c 2b 01 f5 bc 94 a4 71 bc f1 39 fa 3c
       0.02177436 -0.029907783 -0.014748711 0.030545207
000070 da 92 78 bc e0 0d ab bd 8a 77 39 b9 2c 15 6f 3c
       -0.015171731 -0.08352256 -0.00017687507 0.01459245
000080 53 ec d1 bc d5 d3 e5 3c c8 6f f4 3a d6 26 52 bd
       -0.025625383 0.028055111 0.0018649036 -0.051306568
000090 b8 7a db 3a a9 c4 70 3b 6e 94 b7 3c 75 52 39 bb
       0.0016744947 0.0036738312 0.022409644 -0.0028277908
0000a0 0c a6 7f bc 20 01 98 bd 67 9c 78 bc 77 31 63 bc
       -0.0156035535 -0.074220896 -0.015174008 -0.013866774
0000b0 67 2d 34 ba bc 02 bd bd 1a e0 ce 3c 42 58 35 3d
       -0.00068732206 -0.09229037 0.025253344 0.044273622
0000c0 05 a1 9c 3d c2 5b 95 bb 64 ea 67 bb 2d ed 7c 3d
       0.076478995 -0.0045580575 -0.003538751 0.061749626
0000d0 c6 a0 c3 3d 04 68 f0 3c 5b 9f 3c bd b9 1b a9 3c
       0.095521495 0.029346474 -0.04605041 0.020643102
0000e0 8c 62 c6 3d 5b 21 0b bd 0a 48 75 bc 97 f1 ae 3b
       0.09686765 -0.033967357 -0.014970789 0.0053388583
0000f0 dd 96 df bc c7 bd bf 3c 8d d4 c0 3c f4 91 8b bc
       -0.027293617 0.023405923 0.023538852 -0.01703737

a2c_network.sigma f4 [8]
000000 0d 46 93 bf b6 e7 b9 bf 6d 93 92 bf cd ef b7 bf
       -1.1505753 -1.4523838 -1.1451241 -1.4370056
000010 33 a1 58 bf c4 82 a6 bf 58 ad 8b bf 46 ac b5 bf
       -0.8462097 -1.3008657 -1.0912275 -1.4193199
