eval/pretrained_anymal_converted.pth (torch, 225351 bytes, 16 tensors)

running_mean_std.running_mean f8 [48]
0.008592615108296625 0.013539341584303631 0.19729468810901288 0.0008180071249566148 -0.0006087271737046663 -0.0023885125998830874 -6.482670612142601e-05 0.0006494348588677838
-0.9946723708655 0.012881227452124134 -0.003972287716952783 -0.0016925414018210878 0.09435017179708119 0.19129242642426925 -0.35682280908172037 -0.04116112619160591
-0.17867679279616572 0.4620711125988677 0.012176774300011326 0.11305699528143716 -0.3750962622535399 -0.2642688700458771 -0.0786183232241574 0.20714048141353086
-0.0027893641771068603 -0.0017420684848917772 0.003602749241494105 -0.001626534270042176 0.0016397900662613472 -0.005491801603769307 6.772664010818507e-06 -0.0020680995461631905
0.005626759771867977 0.0040452788117129965 0.0011677664508583099 -0.003928896132771752 0.04142782903736002 0.36159002491119074 -0.147470320059124 -0.16486559031956027
-0.35512433092087725 0.25121872642203646 0.05460843040221672 0.23893073276297425 -0.18784507284598817 -0.2956300134816893 -0.07586579471134812 -0.09923008369605632
00000000: 639b 0447 0199 813f d9fb 82aa 83ba 8b3f
00000010: 4526 8dcc f340 c93f 2b28 bfec f0cd 4a3f
00000020: 0bd5 d0a6 5ff2 43bf 6a26 15f0 1291 63bf
00000030: 1807 af54 72fe 10bf e572 67bd da47 453f
00000040: 7344 e326 5bd4 efbf 6d1a 1d15 7961 8a3f
00000050: f494 5add 3e45 70bf 5ada f27d 08bb 5bbf
00000060: d28d 3d36 5527 b83f 087c bb2d 457c c83f
00000070: 0643 de55 2fd6 d6bf 4b0d b835 1213 a5bf
00000080: ba8d ce92 e1de c6bf 4c76 42b7 9292 dd3f
00000090: d254 1dfb 22f0 883f 455b 51a1 4df1 bc3f
000000a0: 51c5 cec0 9301 d8bf a9aa 8cfa c7e9 d0bf
000000b0: 8836 1d97 5420 b4bf d6a5 ac4c 9483 ca3f
000000c0: 2296 5a7d b8d9 66bf f851 e1ca c38a 5cbf
000000d0: 607c 5f45 8383 6d3f 24cd b8df 2da6 5abf
000000e0: c7d1 3d2d c7dd 5a3f 2588 8c44 927e 76bf
000000f0: 10b6 2db5 1768 dc3e 46f3 4c7d 1ef1 60bf
00000100: ebef 3dd3 150c 773f 6a30 3143 c891 703f
00000110: 01b5 cfad f721 533f 3fe8 6406 bf17 70bf
00000120: e62f b845 0736 a53f bc6a e37c 4a24 d73f
00000130: 756d e4b4 4ee0 c2bf 6441 54cf 501a c5bf
00000140: 4e6b d466 5bba d6bf d806 88b5 f713 d03f
00000150: dcaa 53dd a2f5 ab3f 13f7 9c41 4895 ce3f
00000160: 004c 4bae 4e0b c8bf 5bac e725 9aeb d2bf
00000170: 1f98 2bd3 f06b b3bf e6ff 408c 2467 b9bf

running_mean_std.running_var f8 [48]
4.8349865922932524 1.2227976969730785 0.4140462805270552 0.1303146777721969 0.034004994614415196 0.019901903265337362 0.005194541509561293 0.00530186640688398
8.919621797075685e-05 5.08952496243872 1.293782197590711 0.020050104619969995 0.0467245645287808 0.0462108533773552 0.03463772027503744 0.1284587848717711
0.05166630136032971 0.03379070758637998 0.11665107967656321 0.07621690282749954 0.046889789844812804 0.029528695197802116 0.053945767944934137 0.04355263580846723
0.019353226028918435 0.030722053198725556 0.0510900903356982 0.016039478647001122 0.03078646917931324 0.0427456861851948 0.01826857750882868 0.036839293604452227
0.04970469975738744 0.017246942537979093 0.02763399262296073 0.07804174260094694 0.37768438406467925 0.3560736138114753 0.5950799960881799 0.501937457116972
0.3630397881200542 0.5663778792031872 0.5084516364312319 0.44259524443939924 0.5448394749594886 0.3862266965549745 0.31191974585256327 0.590906391242455
00000000: f5fd a9b9 0657 1340 d1f9 6151 9490 f33f
00000010: a739 79f8 bb7f da3f e234 9cbf 26ae c03f
00000020: 0005 8a47 1a69 a13f 4072 9c1e 2a61 943f
00000030: d0a4 6b1e df46 753f d88a 34ed 68b7 753f
00000040: 51fd 3f5b db61 173f 5466 876e ac5b 1440
00000050: 2bc9 2cf6 54b3 f43f 1521 7fbe 0388 943f
00000060: 3d54 2439 48ec a73f 30b5 f3ef f2a8 a73f
00000070: c31c 9407 09bc a13f 783e f463 5671 c03f
00000080: 14b9 4b65 0174 aa3f c901 fcff 034d a13f
00000090: 8201 415c d8dc bd3f c4e8 0b71 f382 b33f
000000a0: 7ab0 cc43 f001 a83f a425 ac30 c53c 9e3f
000000b0: 9485 299a c79e ab3f fe67 e7f4 874c a63f
000000c0: 8317 7703 55d1 933f 3e9b 0417 9a75 9f3f
000000d0: ed73 48f6 7a28 aa3f d25e ef30 a76c 903f
000000e0: 184a 23f9 7c86 9f3f 6fc5 6b38 c3e2 a53f
000000f0: 7889 c77b ffb4 923f 6b4c 7a92 99dc a23f
00000100: 8fb9 d4f7 e472 a93f c05e a0b8 2ea9 913f
00000110: 3f49 4bda 154c 9c3f 8da4 312c 8bfa b33f
00000120: 0322 711f fb2b d83f 087c 92fb e8c9 d63f
00000130: 367b 3634 e50a e33f b38d 5e24 df0f e03f
00000140: 70d5 473c 0b3c d73f 7b60 8b80 c41f e23f
00000150: fe3b c25d 3c45 e03f c0de 0e01 7b53 dc3f
00000160: 83aa d031 536f e13f 43ed a22d f0b7 d83f
00000170: ff74 da3c 7ef6 d33f 7a47 2c85 b4e8 e23f

running_mean_std.count f8 []
98304001.0
00000000: 0000 0004 0070 9741

value_mean_std.running_mean f8 [1]
2.320606605631667
00000000: 808e 3032 9a90 0240

value_mean_std.running_var f8 [1]
0.3465783916371556
00000000: 3f3d 6522 572e d63f

value_mean_std.count f8 []
196608001.0
00000000: 0000 0002 0070 a741

a2c_network.actor_mlp.0.weight f4 [256, 48]
-0.05028282 0.16608927 -0.008903354 0.08223926 -0.08288453 -0.18949124 0.017811287 0.02150187
0.1975452 -0.33302113 -0.08022757 -0.2788019 0.06966529 -0.0041986145 -0.008192855 -0.14575583
0.0030502833 -0.14081462 0.09258225 -0.05643035 0.12883502 -0.1744515 -0.10297507 -0.24278376
0.13301328 0.062346548 -0.01915687 -0.15840833 0.09629704 0.02970652 -0.1402953 0.109425806
0.0063892086 0.021142188 0.04762138 -0.070734814 0.083961 -0.06239056 -0.023838772 -0.008091249
-0.066747144 0.08370604 0.07453319 -0.09868145 0.00019445345 -0.0108426 0.06057136 0.0109661175
-0.15642016 -0.10551983 0.09473552 0.040206615 0.08380867 -0.14687474 0.013938821 0.03512921
0.31178975 -0.03240462 0.45358545 0.23186798 0.028112313 0.06626239 0.04091998 0.0019935644
0.025329204 -0.017319173 -0.062037084 0.18746613 0.041820977 0.07571503 -0.18919782 -0.16168696
0.03420843 0.049671642 -0.006909805 0.01032946 -0.00016676336 -0.0693765 -0.06543112 -0.086307555
0.010220267 -0.03454505 0.057425823 -0.020704363 0.041880883 -0.03073372 -0.059089866 0.014089946
-0.034187373 0.06279273 0.081694074 0.041469764 0.08350998 -0.07118386 0.048399825 0.091954574
-0.047224715 0.07094387 0.08462098 -0.023133406 0.14794905 -0.085057065 0.1134853 0.06431941
-0.24798398 -0.16381188 -0.0059594703 0.08874358 -0.13489126 0.07575974 0.035318922 0.0017175217
0.023441419 0.055444803 -0.06808994 0.13199686 0.054049283 0.030430436 0.00575045 -0.03234823
0.08716454 0.08762031 -0.06864867 -0.11317909 0.19048175 0.0016754011 -0.053798188 0.041263092
0.11163198 0.086331055 0.16256624 -0.028368056 -0.022606429 0.015683852 0.009461368 0.04375751
-0.014599095 0.14167425 0.07299794 0.060562782 -0.019027192 -0.0034009484 0.08469495 0.124370724
0.18940277 -0.13984047 0.24431011 -0.0604549 -0.029177897 0.08478146 0.06201193 -0.09241261
-0.05332362 0.0006623722 -0.14616953 -0.09249221 -0.008845267 0.022067273 -0.14263165 0.04723297
0.07363388 -0.055072993 -0.16203631 -0.1631957 -0.09298558 -0.08854474 0.016486889 0.08993012
-0.035034478 0.011510381 0.1001757 -0.011135368 0.20003814 0.06593177 -0.062951 -0.13488036
0.08537669 0.14097108 0.05578879 -0.05445228 -0.12371707 -0.08277621 -0.003692658 0.03132288
-0.054833688 0.12006833 -0.09093523 -0.13749318 0.036380198 0.019461736 -0.09157083 -0.010699259
-0.18992625 0.110068575 -0.034995705 0.015072445 0.1799645 -0.0433738 0.050729223 0.06278511
0.087393485 0.038846888 0.04274493 -0.0072494266 -0.073396616 -0.031395476 0.019731665 0.11485551
-0.06183721 -0.124979034 0.05612313 0.06808442 0.01556363 -0.009564351 -0.16188939 -0.04807933
-0.12532784 0.0541579 0.021835953 0.020372964 -0.11921396 -0.09795727 -0.008036284 0.050492767
0.039507836 0.041776847 -0.041789368 0.04159127 0.047841035 0.14939286 0.06648246 0.0422693
0.11706724 -0.04321698 -0.10100661 -0.025178563 0.09758395 0.07733605 0.0066286903 -0.013303729
-0.06426962 0.27333036 0.042763516 0.15346675 -0.13055179 -0.02038447 -0.04190533 0.1229062
0.10362771 0.2203588 -0.51635927 -0.32855943 0.0756893 0.11447732 0.13317482 -0.0058225812
00000000: 5cf5 4dbd 4e13 2a3e 60df 11bc 0f6d a83d
00000010: 5dbf a9bd fe09 42be fae8 913c b124 b03c
00000020: 4a49 4a3e bf81 aabe 5a4e a4bd 1fbf 8ebe
00000030: adac 8e3d 8894 89bb 533b 06bc 0441 15be
00000040: 43e7 473b b531 10be c39b bd3d 8323 67bd
00000050: 54ed 033e 6aa3 32be 98e4 d2bd 4e9c 78be
00000060: a234 083e 185f 7f3d deee 9cbc cb35 22be
00000070: 6237 c53d 165b f33c 92a9 0fbe a31a e03d
00000080: 915c d13b 6232 ad3c a30e 433d 6add 90bd
00000090: bff3 ab3d 3e8d 7fbd 8749 c3bc 2891 04bc
000000a0: bab2 88bd 136e ab3d dba4 983d 8019 cabd
000000b0: 33e6 4b39 29a5 31bc ad19 783d 3bab 333c
000000c0: 9b2c 20be c81a d8bd b204 c23d b1af 243d
000000d0: e1a3 ab3d 5566 16be a75f 643c a6e3 0f3d
000000e0: e8a2 9f3e b5ba 04bd 5a3c e83e cd6e 6d3e
000000f0: cb4b e63c 93b4 873d b59b 273d 76a6 023b
00000100: 317f cf3c f0e0 8dbc 991a 7ebd 1ff7 3f3e
00000110: 794c 2b3d 7b10 9b3d 13bd 41be 4491 25be
00000120: 241e 0c3d 7e74 4b3d a56b e2bb e53c 293c
00000130: 33dd 2eb9 4415 8ebd c000 86bd 04c2 b0bd
00000140: e872 273c 1c7f 0dbd 5737 6b3d 329c a9bc
00000150: 4a8b 2b3d 48c5 fbbc 3708 72bd 84d9 663c
00000160: 0f08 0cbd 7a99 803d 394f a73d 33dc 293d
00000170: 4807 ab3d d8c8 91bd e53e 463d ae52 bc3d
00000180: b46e 41bd 054b 913d c44d ad3d 4582 bdbc
00000190: f57f 173e 6632 aebd fb6a e83d e5b9 833d
000001a0: 83ef 7dbe 4dbe 27be a947 c3bb 32bf b53d
000001b0: ef20 0abe ec27 9b3d 93aa 103d 771e e13a
000001c0: 3808 c03c 171a 633d bd72 8bbd 2f2a 073e
000001d0: c862 5d3d 4049 f93c 456e bc3b 947f 04bd
000001e0: 5383 b23d 4772 b33d ad97 8cbd 70ca e7bd
000001f0: a60d 433e 2299 db3a 7d5b 5cbd 7d03 293d
00000200: 4f9f e43d 56ce b03d c477 263e 2064 e8bc
00000210: 1e31 b9bc 6c7b 803c db03 1b3c 133b 333d
00000220: 0b31 6fbc 0e13 113e f27f 953d ae10 783d
00000230: eade 9bbc 72e2 5ebb 8c74 ad3d 14b6 fe3d
00000240: cdf2 413e 5732 0fbe 6e2c 7a3e 8f9f 77bd
00000250: 7c06 efbc e7a1 ad3d 3900 7e3d d342 bdbd
00000260: de69 5abd 0ca3 2d3a 77ad 15be 8e6c bdbd
00000270: bdeb 10bc 6dc6 b43c 080e 12be 5c77 413d
00000280: 5ccd 963d 3894 61bd d9ec 25be c61c 27be
00000290: 396f bebd f256 b5bd 830f 873c 482d b83d
000002a0: 5080 0fbd 0996 3c3c eb28 cd3d 1e71 36bc
000002b0: ccd6 4c3e 3c07 873d 74ec 80bd 141e 0abe
000002c0: f9d9 ae3d b95a 103e c982 643d 5b09 5fbd
000002d0: 605f fdbd 9386 a9bd 8500 72bb 6c4c 003d
000002e0: 4a99 60bd 62e6 f53d 403c babd 03cb 0cbe
000002f0: 6703 153d 386e 9f3c 7d89 bbbd f24b 2fbc
00000300: 077c 42be a26b e13d a857 0fbd 6bf2 763c
00000310: 9d48 383e baa8 31bd 72c9 4f3d 7b95 803d
00000320: 5bfb b23d ea1d 1f3d 4f15 2f3d 998c edbb
00000330: f750 96bd 8b98 00bd 4da4 a13c 5e39 eb3d
00000340: 0449 7dbd 02f5 ffbd 5ee1 653d d86f 8b3d
00000350: 98fe 7e3c ccb3 1cbc 55c6 25be d5ee 44bd
00000360: f155 00be add4 5d3d 50e1 b23c 34e5 a63c
00000370: 7326 f4bd d29d c8bd 9eaa 03bc 81d1 4e3d
00000380: f8d2 213d 331e 2b3d 542b 2bbd 9c5b 2a3d
00000390: f6f4 433d 71fa 183e f527 883d 9322 2d3d
000003a0: f3c0 ef3d 4a04 31bd 8edc cebd 4643 cebc
000003b0: 18da c73d 5d62 9e3d 7c35 d93b e2f7 59bc
000003c0: ca9f 83bd f5f1 8b3e cc28 2f3d 6326 1d3e
000003d0: 5eaf 05be 55fd a6bc eca4 2bbd 3fb6 fb3d
000003e0: c43a d43d bda5 613e 1f30 04bf f138 a8be
000003f0: fe02 9b3d 1673 ea3d fb5e 083e 5acb bebb

a2c_network.actor_mlp.0.bias f4 [256]
-0.24666494 -0.28805995 0.2661898 0.2802776 0.2628546 -0.2078944 -0.14992873 0.3021326
0.26608253 0.10654502 -0.17623833 0.064005345 0.06671451 -0.19299142 0.18118621 0.28865284
0.009067048 -0.15237361 -0.27692705 -0.0006685762 0.058243033 0.20502417 -0.035049926 0.0330515
0.21556525 -0.033957742 -0.22304282 0.008093888 0.12657148 0.20498726 0.1690235 0.19617154
0.24104066 0.22127585 -0.1798036 -0.15698259 -0.0747318 0.12676412 0.19475593 -0.0031848596
-0.29252836 0.18231413 -0.05049161 -0.30798662 -0.24287127 -0.022229427 0.09516952 0.0054953545
0.09216505 0.2524296 -0.31067568 -0.1567182 -0.15689059 -0.32245576 -0.21996339 0.18840443
-0.085190356 0.028387517 0.22557214 -0.18344828 -0.2282998 0.16755241 -0.08018685 0.26863268
0.24537745 -0.17281793 0.28131506 -0.27812997 -0.15098922 0.28684422 -0.2907822 -0.0124224955
-0.23301777 -0.1615862 -0.13118063 0.11802734 0.24218915 0.21305214 -0.16406713 -0.13030215
0.022731038 -0.08972629 0.15024142 -0.10919707 0.028236652 0.036406223 0.07997251 -0.2886363
0.16802566 0.25439763 -0.11626265 0.16314666 0.2510181 -0.23779544 0.17644277 -0.20178983
0.18367766 0.24649656 -0.04996741 0.16406201 0.1409127 0.079360835 -0.2320321 0.08565955
0.10253296 -0.20294951 -0.12812375 0.09281266 -0.05716861 -0.108047724 -0.005442668 -0.041887376
0.26339957 -0.13778931 0.17208742 0.2795268 0.2180737 -0.09935431 0.29944372 0.061715532
0.07564869 0.16786814 -0.21272501 -0.14183344 -0.28260496 -0.31772646 -0.18265836 -0.21874574
-0.23477 0.1448083 0.05623127 -0.0037204963 0.24921073 -0.044732492 0.3006406 -0.038035285
-0.053035844 -0.32346714 0.026437167 -0.22897756 -0.27013394 -0.21330851 0.18612279 -0.08820908
0.1312398 -0.13616046 0.0008494365 0.2150512 -0.23143849 -0.016931593 0.19612189 -0.04415054
0.23196812 0.25722763 0.076830715 -0.23891713 -0.20520839 -0.14137347 -0.08907059 0.2530072
0.06010999 0.12205362 0.068062626 -0.08078129 -0.13281484 -0.23480064 -0.24322222 0.07857129
0.1875837 0.14009462 -0.13757387 -0.037125837 0.06544988 -0.24344698 -0.028657008 0.25899056
-0.282537 -0.08530563 -0.2997718 0.12729114 -0.1470765 0.2352648 -0.28601098 -0.21515422
0.12141982 -0.021291222 -0.028191105 -0.23043737 -0.15008208 0.044463582 0.26893792 -0.21336542
-0.27429712 -0.119040556 0.16780278 0.21519095 0.16593476 -0.16836055 -0.023955759 0.11684896
-0.05209844 -0.21665455 -0.22120093 -0.051854838 0.1263529 -0.23464392 -0.29678008 0.11420248
0.095543526 -0.33555233 -0.08311282 -0.30800867 -0.066570304 0.06686948 0.23766638 0.044241965
0.04243582 0.1427109 -0.06933845 0.054491527 -0.10454243 0.08419435 -0.23038298 0.09017792
-0.28028628 0.2342227 0.04496916 0.006699207 -0.13787748 0.1379976 -0.30700442 -0.20734067
0.22937524 -0.06940177 -0.27525148 0.10999852 -0.052201886 0.16103403 0.261011 0.10886206
0.15519874 0.009904086 -0.26148182 0.15691553 -0.18973541 0.17027014 0.076280296 0.02756393
0.19135195 0.06971731 -0.2243205 0.1834804 0.1357411 0.20071445 0.18294503 0.1153816
00000000: bc95 7cbe 987c 93be 084a 883e 8c80 8f3e
00000010: e194 863e 45e2 54be eb86 19be 20b1 9a3e
00000020: f83b 883e 4734 da3d d277 34be 3c15 833d
00000030: 9ea1 883d 8b9f 45be e188 393e 4eca 933e
00000040: f58d 143c d407 1cbe 62c9 8dbe 6443 2fba
00000050: 3f90 6e3d dbf1 513e 8390 0fbd 0261 073d
00000060: 23bd 5c3e 4617 0bbd 5665 64be 3a9c 043c
00000070: f49b 013e 2ee8 513e 7f14 2d3e 31e1 483e
00000080: 5dd3 763e 2396 623e 6f1e 38be 0bc0 20be
00000090: fc0c 99bd 74ce 013e 196e 473e 14b9 50bb
000000a0: 47c6 95be 8eb0 3a3e 4ad0 4ebd 6cb0 9dbe
000000b0: 3fb3 78be 7d1a b6bc 3de8 c23d 6012 b43b
000000c0: 08c1 bc3d 743e 813e e210 9fbe bc7a 20be
000000d0: eda7 20be ec18 a5be 153e 61be 17ed 403e
000000e0: 4878 aebd f08c e83c 62fc 663e ded9 3bbe
000000f0: 6cc7 69be dc92 2b3e 0139 a4bd 398a 893e
00000100: 3a44 7b3e 2ff7 30be 8708 903e 0d67 8ebe
00000110: eb9c 1abe 3fdd 923e 68e1 94be b987 4bbc
00000120: 369c 6ebe da76 25be 3754 06be 51b8 f13d
00000130: 6f00 783e 572a 5a3e 3701 28be ed6d 05be
00000140: 7136 ba3c 6bc2 b7bd e3d8 193e b7a2 dfbd
00000150: 8d50 e73c b11e 153d a1c8 a33d 23c8 93be
00000160: eb0e 2c3e 6840 823e 1d1b eebd eb0f 273e
00000170: 7285 803e a680 73be 6aad 343e fea1 4ebe
00000180: ff15 3c3e 9869 7c3e a0aa 4cbd dfff 273e
00000190: 6b4b 103e ef87 a23d d399 6dbe 466e af3d
000001a0: cdfc d13d ffd1 4fbe df32 03be 9014 be3d
000001b0: a229 6abd 2048 ddbd 6958 b2bb 1992 2bbd
000001c0: 4fdc 863e a418 0dbe af37 303e 231e 8f3e
000001d0: b64e 5f3e 467a cbbd b050 993e 6dc9 7c3d
000001e0: b3ed 9a3d a0e5 2b3e 96d4 59be c93c 11be
000001f0: 99b1 90be 0bad a2be cb0a 3bbe e2fe 5fbe
00000200: 8c67 70be a148 143e c352 663d 92d3 73bb
00000210: 1931 7f3e 6b39 37bd 91ed 993e e3ca 1bbd
00000220: 1d3c 59bd 7c9d a5be c292 d83c 1879 6abe
00000230: ff4e 8abe 8c6d 5abe f996 3e3e f6a6 b4bd
00000240: ba63 063e a66d 0bbe b8ac 5e3a 6236 5c3e
00000250: 36fe 6cbe 20b4 8abc 2dd4 483e 32d7 34bd
00000260: 0d89 6d3e 57b3 833e 6c59 9d3d b1a6 74be
00000270: 2622 52be 35c4 10be a46a b6bd 298a 813e
00000280: e535 763d 40f7 f93d 6b64 8b3d a970 a5bd
00000290: 9d00 08be 946f 70be 3f0f 79be fce9 a03d
000002a0: f115 403e f774 0f3e 2ae0 0cbe 4311 18bd
000002b0: 960a 863d 2a4a 79be 1ac2 eabc 699a 843e
000002c0: b1a8 90be b8b4 aebd b07b 99be 9c58 023e
000002d0: 399b 16be 41e9 703e 0870 92be 6351 5cbe
000002e0: f4aa f83d ee6a aebc 08f1 e6bc c6f7 6bbe
000002f0: 1eaf 19be 721f 363d 3bb2 893e 777c 5abe
00000300: ac70 8cbe 89cb f3bd 7ed4 2b3e 045b 5c3e
00000310: cdea 293e b566 2cbe de3e c4bc 824e ef3d
00000320: 2c65 55bd b1da 5dbe 7f82 62be bd65 54bd
00000330: a862 013e 7f46 70be 8ff3 97be fde2 e93d
00000340: 53ac c33d 84cd abbe 0e37 aabd 50b3 9dbe
00000350: 0356 88bd def2 883d d15e 733e 1037 353d
00000360: 2fd1 2d3d ce22 123e 5101 8ebd 8232 5f3d
00000370: 571a d6bd 166e ac3d 84e9 6bbe 34af b83d
00000380: af81 8fbe 13d8 6f3e 9531 383d 0585 db3b
00000390: c12f 0dbe 3e4f 0d3e af2f 9dbe 1d51 54be
000003a0: 58e1 6a3e 8422 8ebd c3ed 8cbe e746 e13d
000003b0: a5d1 55bd 1be6 243e 3ca3 853e 12f3 de3d
000003c0: 6bec 1e3e bf44 223c f2e0 85be 77ae 203e
000003d0: 004a 42be 4c5b 2e3e d838 9c3d c0cd e13c
000003e0: c4f1 433e f3c7 8e3d 46b4 65be 49e2 3b3e
000003f0: b7ff 0a3e 1788 4d3e f155 3b3e 304d ec3d

a2c_network.actor_mlp.2.weight f4 [128, 256]
0.10218557 0.13444784 -0.09614428 -0.061355874 0.084029555 -0.040196482 -0.03875877 -0.067974836
-0.018923717 -0.024142232 0.15606336 -0.030420113 0.0151272295 -0.017621327 -0.047686104 -0.07923639
0.053683348 0.11490349 0.12507491 0.0455497 0.07182605 -0.14879769 0.07111258 0.00819208
-0.095161475 -0.1332289 -0.13475868 0.20565209 0.053892296 -0.12585314 -0.053167872 -0.17936672
0.0788539 0.11320183 -0.053204056 0.07516751 0.039417375 -0.07856059 0.077483915 -0.036594056
-0.14487816 -0.08170719 -0.19789295 -0.05085007 0.038152285 -0.08971792 0.14103721 -0.02542496
-0.11645793 0.07967958 -0.08367215 0.08336519 0.031034052 0.13348807 0.10726181 -0.049033225
-0.088167526 0.109458566 -0.094095506 0.0046880348 -0.12461761 0.043196525 -0.06816916 -0.023581835
0.004161143 0.10788289 0.0061964644 0.03137077 0.019780876 -0.06889133 0.082126185 -0.20348336
-0.066601306 0.03381262 -0.065348946 -0.07034032 -0.02163691 0.015873842 -0.10974239 -0.069861196
0.018459804 -0.064757936 -0.013965772 0.07911892 0.08851133 0.13874064 -0.037633296 -0.084762484
-0.0013482693 0.030374642 0.013153561 0.032036033 0.07013077 -0.14784636 -0.04364035 0.082508355
-0.03191261 -0.070647225 -0.058590814 -0.009097427 -0.024410227 -0.023215339 -0.07288955 0.08110056
0.006803981 -0.090596065 -0.07925589 -0.07080269 0.100228295 0.1258222 0.07897752 -0.11966662
-0.06002971 0.016874913 0.04690567 -0.11068576 -0.057706166 -0.17326874 -0.11821625 0.046064284
0.018620871 0.07410293 -0.09068628 0.176588 0.007294584 -0.12120621 -0.056424163 0.1696514
0.025700312 -0.17084786 0.034032866 0.06907356 -0.1095952 -0.025385365 -0.06583341 0.025493342
0.055266056 0.0042752037 -0.17331825 -0.021936912 -0.003945358 -0.13233843 -0.0117264325 0.06916988
-0.026661543 0.1406289 -0.023602035 -0.23634657 0.034323636 0.058794275 -0.1400714 0.025660114
0.117380425 -0.039396808 -0.24107225 0.04242504 0.13156983 -0.035581525 0.034857523 -0.08198873
-0.11844457 0.08121285 -0.14052708 0.04854274 0.068113536 0.010787327 0.028559418 0.10333401
0.04032444 0.060704578 -0.123448774 0.15315992 0.099279 -0.025624495 0.009979424 -0.08843898
0.08129969 0.01680593 -0.050324608 0.04079308 -0.062609695 -0.005841108 0.08544144 -0.014584809
0.02325365 0.08739109 0.026115188 0.092892446 -0.007945036 0.007855613 -0.067026064 0.0154234525
0.020999726 0.009072992 0.08061451 -0.0858801 0.014180624 0.14924626 -0.021191346 -0.12982571
-0.027605169 -0.12445135 0.116334446 -0.0045004277 -0.057777468 -0.05593456 0.050998352 -0.060962357
-0.072368644 0.06289443 -0.054482847 -0.011242199 -0.082807 0.02986907 -0.09343446 0.015898082
0.067225605 -0.013800916 -0.05106673 0.032822493 0.04682722 -0.0745618 0.06408448 -0.02977433
0.076820984 -0.043729946 0.02387225 0.033719517 -0.13933156 -0.0996963 -0.11194269 0.02416148
-0.04228363 0.052186485 0.0429119 -0.002875878 0.099598974 -0.007335299 0.0138667105 -0.07658762
0.0060205194 -0.18907213 0.063090414 -0.053053107 0.003699276 -0.17541629 0.020896146 0.2002572
-0.009825389 0.09388361 0.12560579 -0.080369085 -0.03659887 -0.03329398 -0.08511036 0.066869214
00000000: ab46 d13d b2ac 093e 4be7 c4bd 4c50 7bbd
00000010: b017 ac3d 11a5 24bd 84c1 1ebd 6436 8bbd
00000020: e905 9bbc eec5 c5bc 13cf 1f3e 9a33 f9bc
00000030: 33d8 773c 9a5a 90bc 8152 43bd b046 a2bd
00000040: 12e3 5b3d 8552 eb3d a313 003e 5292 3a3d
00000050: 8919 933d 6c5e 18be 79a3 913d 1338 063c
00000060: 05e4 c2bd 286d 08be 2efe 09be 7696 523e
00000070: 2bbe 5c3d a5df 00be 8ec6 59bd e9ab 37be
00000080: 277e a13d 5cd6 e73d 7fec 59bd 6cf1 993d
00000090: 1d74 213d 60e4 a0bd e3af 9e3d a6e3 15bd
000000a0: f15a 14be 1956 a7bd 73a4 4abe 2a48 50bd
000000b0: 9245 1c3d 07be b7bd 0f6c 103e 0148 d0bc
000000c0: 7f81 eebd 0c2f a33d 4e5c abbd 5ebb aa3d
000000d0: 203b fe3c 19b1 083e 14ac db3d 10d7 48bd
000000e0: 2d91 b4bd d02b e03d 25b5 c0bd 169e 993b
000000f0: 8437 ffbd d7ee 303d 469c 8bbd b12e c1bc
00000100: 335a 883b b4f1 dc3d b60b cb3b a37e 003d
00000110: 810b a23c e616 8dbd c631 a83d f15d 50be
00000120: 4466 88bd 1a7f 0a3d abd5 85bd 960e 90bd
00000130: e43f b1bc dc09 823c 9ec0 e0bd 6313 8fbd
00000140: 0439 973c cf9f 84bd b2d0 64bc 1a09 a23d
00000150: 6e45 b53d 0712 0e3e 5f25 1abd f497 adbd
00000160: 69b8 b0ba 3ed4 f83c 0982 573c 3738 033d
00000170: b9a0 8f3d 0965 17be 39c0 32bd 24fa a83d
00000180: ccb6 02bd 7eaf 90bd ecfc 6fbd 600d 15bc
00000190: f5f7 c7bc 182e bebc 1e47 95bd 0d18 a63d
000001a0: eef3 de3b 6e8a b9bd e950 a2bd 0001 91bd
000001b0: 7e44 cd3d 89d7 003e f7be a13d c613 f5bd
000001c0: b7e1 75bd 423d 8a3c 2920 403d 37af e2bd
000001d0: 4d5d 6cbd 5c6d 31be 5c1b f2bd e7ad 3c3d
000001e0: cc8a 983c 47c3 973d bab9 b9bd 7cd3 343e
000001f0: 6807 ef3b f63a f8bd 061d 67bd 19b9 2d3e
00000200: 7689 d23c bef2 2ebe 0c66 0b3d 7076 8d3d
00000210: 7373 e0bd f8f4 cfbc abd3 86bd 6ad7 d03c
00000220: a95e 623d 0217 8c3b 577a 31be 0ab5 b3bc
00000230: 1048 81bb ba83 07be 3920 40bc f0a8 8d3d
00000240: 4f69 dabc 0601 103e 0e59 c1bc d604 72be
00000250: f196 0c3d 44d2 703d e16e 0fbe 2935 d23c
00000260: 2665 f03d 8c5e 21bd a5db 76be e1c5 2d3d
00000270: 3eba 063e efbd 11bd c3c6 0e3d b5e9 a7bd
00000280: 1193 f2bd ec52 a63d 55e6 0fbe c1d4 463d
00000290: 1c7f 8b3d 54bd 303c 71f5 e93c c8a0 d33d
000002a0: 3d2b 253d 5da5 783d b6d2 fcbd f4d5 1c3e
000002b0: ca52 cb3d 76ea d1bc bd80 233c 7f1f b5bd
000002c0: 7480 a63d 97ac 893c 2d21 4ebd a516 273d
000002d0: 8339 80bd c466 bfbb ecfb ae3d 1ff5 6ebc
000002e0: 707e be3c 1afa b23d 85ef d53c 653e be3d
000002f0: e52b 02bc d4b4 003c f644 89bd a6b2 7c3c
00000300: 9e07 ac3c e3a6 143c 3819 a53d e8e1 afbd
00000310: d955 683c 03d4 183e 7999 adbc 08f1 04be
00000320: 3c24 e2bc 59e0 febd c140 ee3d 5378 93bb
00000330: 11a8 6cbd a31b 65bd a6e3 503d aab3 79bd
00000340: 0336 94bd cbce 803d 6829 5fbd 3331 38bc
00000350: b796 a9bd fbaf f43c 915a bfbd b23c 823c
00000360: 94ad 893d 3d1d 62bc 592b 51bd e170 063d
00000370: e6cd 3f3d dbb3 98bd b93e 833d 4ce9 f3bc
00000380: 5254 9d3d 2c1e 33bd bd8f c33c 7a1d 0a3d
00000390: efac 0ebe 932d ccbd 3642 e5bd 4cee c53c
000003a0: 9a31 2dbd 7fc1 553d 63c4 2f3d 3a79 3cbb
000003b0: 8cfa cb3d f35c f0bb 3331 633c f8d9 9cbd
000003c0: c747 c53b 209c 41be 8c35 813d 374e 59bd
000003d0: 8d6f 723b 54a0 33be 652e ab3c 3910 4d3e
000003e0: abfa 20bc 0d46 c03d ce9e 003e 8c98 a4bd
000003f0: b2e8 15bd 455f 08bd 574e aebd baf2 883d

a2c_network.actor_mlp.2.bias f4 [128]
-0.079017326 0.06805964 -0.15593912 -0.013422071 0.0011204967 -0.002474476 0.07443857 0.010192753
-0.072762564 0.1002702 -0.009919572 -0.05552672 -0.21087956 0.025316672 -0.08412415 -0.19996895
0.11735957 -0.07056398 0.008321913 -0.13840823 -0.17989267 -0.16313042 -0.14640938 -0.10529532
0.019634988 0.029202707 0.012677265 -0.03505577 0.08628404 0.03859534 -0.14836082 -0.0413661
-0.03903582 -0.07003815 -0.24394816 0.054230917 0.10123797 0.04471576 -0.1301252 0.07142442
0.017642157 -0.040937696 -0.095346645 -0.049739387 0.029822761 -0.03242209 0.1174026 -0.06313535
0.022994315 -0.012017323 0.022326048 0.13144241 0.045921993 0.10035522 -0.20559615 -0.0614495
0.028085537 -0.08134972 -0.052277945 -0.0634025 -0.10837729 -0.018294105 -0.098897085 -0.010139978
0.03522001 -0.1549367 -0.15359437 0.11017008 -0.044231016 -0.046826463 0.008385369 0.12526722
0.076136924 -0.15624145 -0.021539737 0.017159872 -0.07173094 0.09927552 -0.030974576 -0.029682355
0.100785956 -0.054720085 0.15377025 -0.070548795 0.026718296 -0.24042319 -0.02423715 0.16096252
0.06041317 -0.0066268165 -0.15143207 0.009380285 -0.17838699 -0.0423208 0.16955003 -0.16044103
-0.09405079 0.07627912 0.084529646 0.101070985 -0.04104743 -0.085575946 0.055227827 -0.11892125
-0.056379277 -0.15455067 0.005275537 0.1834339 0.024122233 -0.21335028 0.01765406 -0.02908178
0.023216467 -0.03612011 -0.19042468 0.031576734 -0.1166825 -0.084224194 0.1122405 -0.10123788
-0.2034518 0.07565446 -0.13136421 -0.12604994 0.017329518 -0.223376 0.03613981 -0.037026394
00000000: d6d3 a1bd da62 8b3d 81ae 1fbe 3fe8 5bbc
00000010: a1dd 923a d12a 22bb 4073 983d 81ff 263c
00000020: 8a04 95bd 765a cd3d b385 22bc fc6f 63bd
00000030: d0f0 57be e964 cf3c 4849 acbd a9c4 4cbe
00000040: 375a f03d d983 90bd a258 083c e3ba 0dbe
00000050: c935 38be a90b 27be 57ec 15be 13a5 d7bd
00000060: 8ed9 a03c 843a ef3c 4eb4 4f3c a496 0fbd
00000070: b0b5 b03d 2616 1e3d e6eb 17be 806f 29bd
00000080: 06e4 1fbd 2970 8fbd 8ccd 79be 3d21 5e3d
00000090: da55 cf3d df27 373d 8a3f 05be f746 923d
000000a0: 4986 903c 49ae 27bd 1a45 c3bd 87bb 4bbd
000000b0: dd4e f43c 07cd 04bd c670 f03d 1b4d 81bd
000000c0: 935e bc3c 4ee4 44bc 1ee5 b63c d798 063e
000000d0: b318 3c3d 0a87 cd3d cc87 52be 79b2 7bbd
000000e0: a413 e63c af9a a6bd 6621 56bd 2bd9 81bd
000000f0: eaf4 ddbd 85dd 95bc 8e8a cabd 2622 26bc
00000100: db42 103d baa7 1ebe d847 1dbe daa0 e13d
00000110: 952b 35bd 1bcd 3fbd c962 093c 0d46 003e
00000120: aded 9b3d c2fd 1fbe 1a74 b0bc dc92 8c3c
00000130: ace7 92bd f750 cb3d 65be fdbc 6928 f3bc
00000140: de68 ce3d 2b22 60bd f375 1d3e e37b 90bd
00000150: 54e0 da3c 7f31 76be fd8c c6bc 5cd3 243e
00000160: cd73 773d c425 d9bb 0211 1bbe c4af 193c
00000170: 14ab 36be 9358 2dbd 869e 2d3e a74a 24be
00000180: b39d c0bd 3a38 9c3d e11d ad3d 4efe ce3d
00000190: 5a21 28bd 7142 afbd 9336 623d fc8c f3bd
000001a0: f5ed 66bd 8842 1ebe 69de ac3b 19d6 3b3e
000001b0: fd9b c53c 7f78 5abe 3f9f 903c ea3c eebc
000001c0: 7630 be3c aef2 13bd b0fe 42be 9b56 013d
000001d0: 3cf7 eebd bc7d acbd 59de e53d ce55 cfbd
000001e0: ab55 50be baf0 9a3d 5784 06be 3c13 01be
000001f0: a2f6 8d3c aebc 64be 5607 143d fda8 17bd

a2c_network.actor_mlp.4.weight f4 [64, 128]
-0.08961174 -0.06356793 0.09994564 -0.0718975 0.14331609 0.018490788 0.017745374 0.05046714
-0.015269636 -0.023255495 -0.020101251 0.041210413 -0.1364449 -0.112018615 -0.04621799 0.09679287
-0.009709465 -0.019055666 0.0015846147 0.070251904 0.01983959 0.064221665 -0.033227846 0.06455073
0.11103201 -0.1040466 0.22109717 -0.042510074 -0.21840583 0.013874619 0.1283926 0.0037439845
0.040180147 0.062256824 0.082888894 -0.13487925 -0.027763572 0.06615434 0.08977381 0.01871582
0.11011775 0.066772215 0.14022046 -0.031349637 -0.06466038 -0.14368099 0.09676463 -0.07311782
0.0923711 -0.0018547232 -0.012043592 0.054714195 -0.090530284 -0.04941471 -0.04366337 0.059732467
0.108846076 0.029101996 0.06512472 0.15620396 0.10719791 0.06875884 0.19515097 -0.04375757
0.021254469 0.000190049 0.03692783 0.075622246 -0.08199307 0.049031563 -0.035678566 -0.10275382
-0.008608096 -0.055194974 -0.07361497 -0.0039026167 0.05258206 0.0016793944 0.088876896 -0.04566741
-0.08518778 0.07541942 -0.1536959 0.11967821 -0.04174623 0.07283187 -0.016514689 -0.051408313
0.0214325 0.0006779024 -0.045952644 0.016251022 -0.016748097 -0.10644606 -0.022569027 -0.015982285
0.038570564 0.032693937 -0.09206591 0.004355108 -0.10341991 0.10134868 -0.108509004 -0.0056669707
0.058274772 -0.004417352 -0.03610332 -0.02045397 0.030282697 0.074485876 -0.09724705 0.07705329
0.10386531 0.019904578 0.0696573 -0.15134199 0.07283086 -0.023333669 -0.021724612 -0.13080828
0.05555852 -0.092660606 -0.105234385 0.088375956 -0.017226886 -0.0065380987 -0.083258204 0.00512006
0.077023156 0.08105403 -0.049933847 0.08159703 0.12802921 0.07109529 -0.025274044 -0.0039567174
-0.056520525 -0.03289469 -0.022728642 -0.017127832 -0.039464608 -0.020729786 0.0045069545 -0.12104061
0.07665376 0.10130948 -0.055972017 0.03768449 -0.0640334 0.05749165 -0.05861813 0.031266518
0.07170005 -0.028814835 -0.1384113 -0.038623072 -0.023608055 0.05165371 -0.0024091816 -0.019060738
0.04077906 -0.076706946 -0.07029739 0.123116106 0.10768871 -0.01693241 -0.0943099 -0.115785174
-0.052500274 -0.0055061285 -0.028163379 -0.039267167 -0.14559823 0.0051369136 -0.10108629 -0.023357108
-0.06114403 0.07311526 0.06510867 -0.030823218 -0.066832185 -0.10935912 0.06840471 -0.12666175
0.01395242 -0.08807425 0.013955384 -0.09849908 0.025732273 0.09433513 0.077323616 -0.03914236
0.02526191 0.0032447127 0.06389346 0.069912456 0.0018286086 0.12102671 -0.07048088 0.10011126
0.05997143 -0.0038287782 -0.07213976 0.09489862 -0.014702278 0.037592135 -0.0579425 -0.028277716
0.0128309075 -0.074052595 -0.038010065 -0.018541556 0.06732195 -0.029018307 -0.098477446 -0.08128758
-0.1736061 -0.11596765 -0.08401869 0.04959877 -0.13765071 0.11035407 0.024116622 -0.24095881
-0.14564441 -0.019048668 -0.13532501 0.09526175 -0.047696155 -0.09300935 0.07618654 -0.08983008
0.10865617 -0.07249454 -0.14246535 -0.017670687 -0.11075539 -0.03912475 0.07790786 0.027547013
0.042432684 -0.11525259 -0.107684925 -0.027981538 0.059286233 0.027879175 -0.04090638 0.0539699
-0.09910087 -0.12757918 -0.03751934 -0.047151767 0.083046556 -0.14080794 0.045013726 0.12454711
00000000: 5c86 b7bd e72f 82bd 4db0 cc3d ff3e 93bd
00000010: 74c1 123e fe79 973c bf5e 913c a2b6 4e3d
00000020: 7f2d 7abc 4f82 bebc 61ab a4bc 40cc 283d
00000030: 36b8 0bbe 046a e5bd 134f 3dbd 573b c63d
00000040: 7314 1fbc a11a 9cbc d9b2 cf3a 3be0 8f3d
00000050: a386 a23c a686 833d ec19 08bd 2c33 843d
00000060: c064 e33d 6216 d5bd 4c67 623e 0b1f 2ebd
00000070: c7a5 5fbe 5f52 633c 5a79 033e a35d 753b
00000080: f093 243d 0301 7f3d a7c1 a93d c91d 0abe
00000090: 6e70 e3bc ed7b 873d 55db b73d eb51 993c
000000a0: 6a85 e13d dfbf 883d f495 0f3e 7a68 00bd
000000b0: a96c 84bd 1c21 13be 892c c63d ccbe 95bd
000000c0: 0f2d bd3d 2f1a f3ba 7c52 45bc fe1b 603d
000000d0: f167 b9bd 1467 4abd 5dd8 32bd 08aa 743d
000000e0: b1ea de3d 4f67 ee3c 1c60 853d eef3 1f3e
000000f0: 948a db3d 6fd1 8c3d a8d5 473e 233b 33bd
00000100: da1d ae3c e447 4739 a341 173d d6df 9a3d
00000110: fceb a7bd 52d5 483d b023 12bd 9870 d2bd
00000120: f908 0dbc 2014 62bd 72c3 96bd 0bc3 7fbb
00000130: 4960 573d 201f dc3a 1705 b63d c00d 3bbd
00000140: ee76 aebd 7f75 9a3d 7562 1dbe d919 f53d
00000150: 18fe 2abd e028 953d d049 87bc 8691 52bd
00000160: 3693 af3c 43b5 313a d738 3cbd dd20 853c
00000170: 4e33 89bc 6400 dabd aee2 b8bc 48ed 82bc
00000180: 2bfc 1d3d 14ea 053d 0d8d bcbd 4bb5 8e3b
00000190: d1cd d3bd e68f cf3d f839 debd ffb1 b9bb
000001a0: 87b1 6e3d 6fbf 90bb 13e1 13bd 168f a7bc
000001b0: 6b13 f83c 0d8c 983d 7629 c7bd 1ece 9d3d
000001c0: 56b7 d43d ed0e a33c 7da8 8e3d 65f9 1abe
000001d0: 5928 953d 4026 bfbc d0f7 b1bc 9bf2 05be
000001e0: 5591 633d d8c4 bdbd 2085 d7bd 74fe b43d
000001f0: 661f 8dbc 8c3d d6bb 4783 aabd 2dc6 a73b
00000200: 51be 9d3d a8ff a53d 6f87 4cbd 581c a73d
00000210: 171a 033e 689a 913d 830b cfbc 5aa7 81bb
00000220: 1182 67bd 95bc 06bd 6b31 babc ab4f 8cbc
00000230: a4a5 21bd 83d1 a9bc 13af 933b 24e4 f7bd
00000240: a6fc 9c3d 587b cf3d ea42 65bd 0d5b 1a3d
00000250: f123 83bd 5d7c 6b3d 9019 70bd 5211 003d
00000260: 7ad7 923d 170d ecbc b1bb 0dbe 3a33 1ebd
00000270: ae65 c1bc d792 533d 5ce3 1dbb 4425 9cbc
00000280: f207 273d 8818 9dbd 14f8 8fbd 4c24 fc3d
00000290: e68b dc3d d6b5 8abc 8d25 c1bd c720 edbd
000002a0: 870a 57bd c16c b4bb e3b6 e6bc 9cd6 20bd
000002b0: b417 15be 8e53 a83b 5406 cfbd 6857 bfbc
000002c0: 2a72 7abd 74bd 953d b257 853d f980 fcbc
000002d0: 50df 88bd adf7 dfbd c517 8c3d 9eb3 01be
000002e0: b198 643c 4660 b4bd 1fa5 643c e3b9 c9bd
000002f0: 7dcc d23c c732 c13d d85b 9e3d bd53 20bd
00000300: 11f2 ce3c 3fa5 543b 93da 823d 432e 8f3d
00000310: ecad ef3a dadc f73d 4858 90bd 2207 cd3d
00000320: 9aa4 753d 3dec 7abb 03be 93bd 355a c23d
00000330: d3e1 70bc 36fa 193d 1d55 6dbd aba6 e7bc
00000340: ba38 523c e3a8 97bd 71b0 1bbd 76e4 97bc
00000350: 17e0 893d cdb7 edbc 8bae c9bd 1a7a a6bd
00000360: ccc5 31be 7380 edbd fe11 acbd 1428 4b3d
00000370: 4ff4 0cbe 5101 e23d 3990 c53c e8bd 76be
00000380: cf23 15be f40b 9cbc a492 0abe 9818 c33d
00000390: 0b5d 43bd b07b bebd b007 9c3d d5f8 b7bd
000003a0: 2087 de3d 0478 94bd 70e2 11be 1ec2 90bc
000003b0: b9d3 e2bd 4641 20bd 288e 9f3d 46aa e13c
000003c0: e5cd 2d3d 8d09 ecbd ea89 dcbd 8a39 e5bc
000003d0: 1fd6 723d de62 e43c 738d 27bd 8b0f 5d3d
000003e0: 66f5 cabd 1ea4 02be e1ad 19bd 3622 41bd
000003f0: 5014 aa3d f52f 10be 5060 383d 8e12 ff3d

a2c_network.actor_mlp.4.bias f4 [64]
-0.046673693 0.121539116 0.1353736 -0.07449108 0.007466504 -0.01991204 -0.16908844 0.15825109
-0.13131568 -0.018879708 -0.04562254 -0.0823628 0.016215408 0.11971558 0.14501207 0.12183661
0.0014766239 0.16652706 -0.12663941 0.09291572 -0.09139006 0.0022221373 0.009601087 -0.02232367
0.108462326 0.03275133 -0.05163045 0.0789048 -0.016119404 0.107038245 0.08871642 -0.08442354
-0.048711162 0.060721364 0.01450695 0.121475115 -0.1315835 -0.04222895 0.006720003 -0.17632513
0.119959675 -0.005172514 0.013968462 0.050412208 -0.04736485 -0.022092326 -0.0037379127 -0.014212728
0.09172703 0.021829769 -0.16819479 0.015655573 -0.13862722 0.11523588 -0.06046019 -0.03163369
-0.11206021 -0.16502613 -0.07188268 -0.12787075 0.058264162 -0.018502885 -0.1338915 0.031119116
00000000: ea2c 3fbd 80e9 f83d 619f 0a3e c88e 98bd
00000010: 93a9 f43b 931e a3bc 8525 2dbe 930c 223e
00000020: 9e77 06be 9ea9 9abc b3de 3abd d4ad a8bd
00000030: 2dd6 843c 712d f53d 0b7e 143e 7985 f93d
00000040: 478b c13a 1286 2a3e c3ad 01be 994a be3d
00000050: b62a bbbd 47a1 113b e14d 1d3c 21e0 b6bc
00000060: 7f21 de3d 4226 063d 737a 53bd d798 a13d
00000070: d70c 84bc de36 db3d f4b0 b53d 40e6 acbd
00000080: 5b85 47bd f7b6 783d 8fae 6d3c f2c7 f83d
00000090: d3bd 06be 43f8 2cbd 7933 dc3b 938e 34be
000000a0: 6bad f53d 317e a9bb fadb 643c 087d 4e3d
000000b0: a501 42bd f7fa b4bc c5f7 74bb 80dc 68bc
000000c0: 62db bb3d 58d4 b23c 413b 2cbe 1e40 803c
000000d0: 4bf4 0dbe ca00 ec3d 1ba5 77bd 5492 01bd
000000e0: d37f e5bd 9cfc 28be 3a37 93bd 8df0 02be
000000f0: 67a6 6e3d 5d93 97bc da1a 09be 84ed fe3c

a2c_network.mu.weight f4 [12, 64]
-0.030019276 -0.0053811995 -0.08819959 -0.029162364 -0.033049535 0.02783239 0.06402177 -0.036545523
0.0617776 -0.051236033 -0.0037914491 -0.06871595 0.11972212 0.018827347 0.034134474 -0.01094435
-0.1392711 -0.048877656 -0.24014322 0.020496093 0.090663955 0.081191875 0.14429128 -0.03351487
0.08572524 0.026818367 0.04897084 0.09834778 0.17694487 -0.14785348 0.09721387 -0.045539066
0.16052735 -0.012966131 0.058662068 0.1324692 -0.047950886 -0.041135464 0.037145138 -0.036207337
0.03338989 0.1273368 -0.10559546 0.109907374 0.031834617 -0.09943717 0.044896625 -0.044031613
-0.11862565 -0.050618134 0.02902618 -0.052188993 0.013371436 -0.14900662 0.13172078 0.19075032
0.07328216 -0.1984064 0.04143076 -0.057943597 0.11275658 -0.009088468 0.051345628 -0.05160178
-0.10720451 0.15577126 -0.024484398 0.21081834 -0.21755877 0.12448878 -0.040410575 -0.0921999
-0.0933708 -0.014371858 -0.024351135 -0.03680453 0.14787427 0.035299174 -0.021710366 -0.075779244
0.16701521 0.02051368 -0.13113673 -0.046911314 0.00038117272 -0.045007028 -0.079019085 0.089414984
-0.2041809 -0.081569344 -0.0753838 -0.08869456 -0.041566603 0.027972508 -0.074484356 0.025832081
0.038322832 0.02766052 -0.16619208 0.027006438 0.15669261 0.17046528 0.16556613 0.08676327
0.0865628 0.074163884 0.05366841 0.058266494 -0.04936562 -0.07411532 0.1662102 0.073246025
-0.16004986 0.16239728 -0.07422113 -0.09977862 -0.053305447 0.20637785 0.08860301 0.110973045
-0.0019807515 -0.1149273 0.07267756 -0.08658505 -0.083380744 -0.00020828526 0.14464867 -0.10878508
0.08643911 -0.18218319 0.00397481 0.0512878 0.15903765 -0.08829453 -0.024005294 0.21437433
0.05934144 -0.07638148 0.0047234353 -0.12974913 0.0026396313 -0.096693836 0.03008988 -0.056586172
-0.10011997 -0.16290247 0.047434743 0.0980394 0.044722434 -0.19503349 0.109979525 0.029618284
0.06394924 0.09284133 0.06879799 0.029001454 -0.028100813 0.18657914 0.094753176 0.06025621
0.012378074 -0.013269626 0.12490121 0.005426495 -0.17069556 -0.031744603 0.0954272 0.094449066
-0.104523905 0.097745016 0.10582709 -0.25645265 -0.13603248 -0.0874807 0.14599568 -0.03868125
-0.06681381 -0.020038022 0.0074004387 -0.07910864 -0.07588661 0.095696494 0.013675068 -0.06330538
0.035275813 -0.1289462 0.07061522 -0.0057097403 0.22134021 0.21619926 -0.06123064 -0.09573338
0.01341822 0.11587861 0.035239257 0.037838943 0.018703796 0.03552957 -0.09475327 -0.0021180531
0.099646345 -0.030083023 0.02029634 0.025377188 0.11174406 -0.08824444 -0.033321433 0.062499292
-0.11718841 -0.07494762 0.013097905 0.10661866 -0.1586844 0.06397838 -0.11073911 -0.09336243
0.12300582 -0.07899901 -0.14105484 -0.11979985 -0.16529913 -0.01155006 0.16206513 0.052660417
0.13076282 -0.02522274 0.1893365 -0.07264698 -0.0908742 0.12500684 -0.0261606 0.027229654
-0.18045744 -0.05008618 -0.058800656 -0.09736982 -0.08778497 0.055430245 0.024362715 0.07738701
0.20316866 -0.07041625 -0.0005012898 0.10992079 0.025901835 0.17682254 0.061815165 0.03461985
0.05605887 -0.030766731 -0.14473002 0.09792789 -0.12386373 0.012976221 0.010576652 0.06380877
00000000: fcea f5bc c654 b0bb fda1 b4bd e9e5 eebc
00000010: f35e 07bd c100 e43c d91d 833d c2b0 15bd
00000020: 820a 7d3d e0dc 51bd f679 78bb f3ba 8cbd
00000030: df30 f53d cf3b 9a3c 97d0 0b3d ee4f 33bc
00000040: 159d 0ebe f033 48bd 1be8 75be 6ce7 a73c
00000050: 06ae b93d ed47 a63d 18c1 133e e346 09bd
00000060: b790 af3d 31b2 db3c a695 483d 906a c93d
00000070: 0931 353e e766 17be 1118 c73d 2c87 3abd
00000080: 4861 243e e56f 54bc a347 703d 02a6 073e
00000090: 2668 44bd a97d 28bd 8025 183d 254e 14bd
000000a0: d6c3 083d 9464 023e 6f42 d8bd 1e17 e13d
000000b0: 0465 023d b7a5 cbbd 86e5 373d 7e5a 34bd
000000c0: 01f2 f2bd f654 4fbd 50c8 ed3c 20c4 55bd
000000d0: de13 5b3c 3195 18be d0e1 063e 0d54 433e
000000e0: f514 963d 0c2b 4bbe 4db3 293d 4456 6dbd
000000f0: ecec e63d cce7 14bc cb4f 523d 635c 53bd
00000100: 0a8e dbbd 8082 1f3e 8193 c8bc c3e0 573e
00000110: bac7 5ebe f9f3 fe3d 8f85 25bd 4dd3 bcbd
00000120: 3139 bfbd f177 6bbc 087c c7bc 59c0 16bd
00000130: 5a6c 173e de95 103d f0d9 b1bc 2632 9bbd
00000140: 0906 2b3e 4e0c a83c b548 06be 1426 40bd
00000150: 23d8 c739 4a59 38bd c2d4 a1bd 341f b73d
00000160: cc14 51be d40d a7bd d262 9abd 7ea5 b5bd
00000170: be41 2abd 9a26 e53c 418b 98bd cd9d d33c
00000180: 67f8 1c3d 5198 e23c 422e 2abe 9b3c dd3c
00000190: 0774 203e 738e 2e3e 2b8a 293e f1b0 b13d
000001a0: d647 b13d 3ce3 973d 68d3 5b3d d9a8 6e3d
000001b0: 9b33 4abd c6c9 97bd 0233 2a3e 0302 963d
000001c0: 1ce4 23be 794b 263e 3f01 98bd bc58 ccbd
000001d0: d056 5abd b754 533e 7f75 b53d d645 e33d
000001e0: 7fcf 01bb 015f ebbd f9d7 943d 8153 b1bd
000001f0: 86c3 aabd 2667 5ab9 c81e 143e b6ca debd
00000200: fd06 b13d 3b8e 3abe 1f3f 823b 2813 523d
00000210: c4da 223e c3d3 b4bd c0a6 c4bc f284 5b3e
00000220: 0310 733d e56d 9cbd 0cc7 9a3b f5dc 04be
00000230: aafd 2c3b 6b07 c6bd 0d7f f63c e7c6 67bd
00000240: b30b cdbd e8cf 26be ef4a 423d e2c8 c83d
00000250: df2e 373d dcb6 47be f23c e13d 0ba2 f23c
00000260: d2f7 823d 9823 be3d f6e5 8c3d 7594 ed3c
00000270: ad33 e6bc 9a0e 3f3e f40d c23d 37cf 763d
00000280: 68cd 4a3c d868 59bc 35cc ff3d bdd0 b13b
00000290: d1ca 2ebe a106 02bd 566f c33d 836e c13d
000002a0: a110 d6bd 8a2e c83d e0bb d83d c34d 83be
000002b0: 194c 0bbe 1529 b3bd e47f 153e 3b70 1ebd
000002c0: aed5 88bd c726 a4bc 617f f23b b603 a2bd
000002d0: 706a 9bbd 86fc c33d 640d 603c 40a6 81bd
000002e0: 5f7d 103d 790a 04be b69e 903d c618 bbbb
000002f0: 02a7 623e 5763 5d3e fbcc 7abd dd0f c4bd
00000300: 18d8 5b3c c451 ed3d 0a57 103d 02fd 1a3d
00000310: b438 993c 7487 113d 010e c2bd 09cf 0abb
00000320: 6213 cc3d ac70 f6bc 8344 a63c d2e3 cf3c
00000330: 12da e43d 80b9 b4bd 0e7c 08bd 42ff 7f3d
00000340: 7a00 f0bd 237e 99bd 9898 563c e25a da3d
00000350: 2a7e 22be 1907 833d 30cb e2bd cd34 bfbd
00000360: 7aea fb3d 3cca a1bd ae70 10be a059 f5bd
00000370: 2d44 29be 763c 3dbc 67f4 253e 73b2 573d
00000380: b0e6 053e eb9f cebc 6de1 413e f1c7 94bd
00000390: 411c babd cb01 003e c14e d6bc b910 df3c
000003a0: d6c9 38be 2b27 4dbd f5d8 70bd d469 c7bd
000003b0: 9bc8 b3bd d30a 633d 5194 c73c 157d 9e3d
000003c0: 720b 503e 6536 90bd fd68 03ba 271e e13d
000003d0: 1630 d43c f810 353e e631 7d3d 8bcd 0d3d
000003e0: fc9d 653d 830a fcbc 1b34 14be 6b8e c83d
000003f0: 44ac fdbd 379a 543c b249 2d3c 2cae 823d

a2c_network.mu.bias f4 [12]
0.09049251 -0.03380942 0.07025086 -0.124468416 0.0060667647 0.117666975 0.029384924 0.06347689
0.0045136614 0.023092909 -0.023987068 -0.053725243
00000000: 2354 b93d bf7b 0abd afdf 8f3d 4ce9 febd
00000010: b6cb c63b 62fb f03d a7b8 f03c 2c00 823d
00000020: 56e7 933b 572d bd3c 8780 c4bc 000f 5cbd

a2c_network.value.weight f4 [1, 64]
-0.0076892083 0.017585743 0.07563764 0.0068148626 -0.0045282184 -0.048582647 -0.13294384 0.053512335
-0.017488303 -0.011694656 0.007813855 -0.019145243 -0.012507224 0.00666072 0.019077018 0.05837064
-0.050607637 0.0871251 -0.034813907 -0.012858881 -0.0033568377 -0.016940907 -0.0012573132 -0.09763503
0.0051029436 -0.020795178 0.0024082626 -0.00507579 -0.004857304 0.0075590564 0.0777611 -0.058432125
-0.048763804 0.06990269 0.0036590819 0.035798322 -0.03518715 0.01454855 -0.028297275 -0.01641323
-0.008159907 0.02785389 0.015633645 -0.0156674 -0.00062024716 -0.1360813 0.0051015588 -0.008756473
-0.023506455 -9.300143e-06 -0.03513014 0.0005376899 -0.038009014 -0.008276532 -0.026697662 0.012025328
-0.08898621 0.012407825 -0.024347207 -0.08666332 0.0055542365 -0.019009134 -0.03376931 0.0043557016
00000000: c1f5 fbbb fa0f 903c e8e7 9a3d 364f df3b
00000010: 7361 94bb 99fe 46bd 6e22 08be c02f 5b3d
00000020: a143 8fbc f19a 3fbc af05 003c 7cd6 9cbc
00000030: 1aeb 4cbc 2b42 da3b 6847 9c3c 0d16 6f3d
00000040: f449 4fbd a56e b23d 0799 0ebd 0eae 52bc
00000050: 64fe 5bbb a8c7 8abc 6ecc a4ba e0f4 c7bd
00000060: 9836 a73b a65a aabc f1d3 1d3b d052 a6bb
00000070: 052a 9fbb f6b1 f73b 3641 9f3d 8656 6fbd
00000080: 8ebc 47bd 2429 8f3d 35cd 6f3b 43a1 123d
00000090: 6720 10bd 0b5d 6e3c b0cf e7bc 0a75 86bc
000000a0: 21b1 05bc d72d e43c 2112 803c eb58 80bc
000000b0: 1598 22ba e558 0bbe fa2a a73b 4f77 0fbc
000000c0: 9c90 c0bc cf07 1cb7 9fe4 0fbd c2f3 0c3a
000000d0: 57af 1bbd 4b9a 07bc 0eb5 dabc e205 453c
000000e0: 673e b6bd 314a 4b3c cb73 c7bc 8a7c b1bd
000000f0: 5000 b63b 0bb9 9bbc b051 0abd 46ba 8e3b

a2c_network.sigma f4 [12]
-1.4005492 -1.2013665 -1.048636 -1.3481002 -1.2595495 -0.9668153 -1.3118167 -1.235349
-0.99793386 -1.3281701 -1.4124907 -1.0060354
00000000: 3245 b3bf 61c6 99bf b439 86bf 8c8e acbf
00000010: eb38 a1bf 3581 77bf 9ce9 a7bf eb1f 9ebf
00000020: 9878 7fbf 7a01 aabf 7fcc b4bf c5c5 80bf
